useless/cifar_net.pth (torch_old, 249562 bytes, 10 tensors)

conv1.weight f4 [6, 3, 5, 5]
00000000: cf2a 823e c333 0b3f acd9 013f 2493 c73e
00000010: 158b 423d 7e72 fa3e b358 643f 92ac 7c3f
00000020: 8daf 6c3f 5459 063f d186 20be 2c8c 09bf
00000030: aeaa 48bf 8dfe f2be 4806 74bd 647d 96be
00000040: e498 e1be 29f6 11bf 3307 12bf c703 4bbe
00000050: 28ec 77be 827c 48be f3bf 05be f354 38be
00000060: 00ba 8dbe 7f9d e7be f8a5 3fbe 0809 debd
00000070: b163 d8bd e6e6 d4be f627 993d 1f38 2f3e
00000080: 35ad 013f cf62 cb3e 736d 733e d1c9 93be
00000090: f584 3ebf cf0b 65bf 6e84 39bf 22e2 c4bd
000000a0: 419a 15bd 7002 4cbe 6168 3dbe f20c 51be
000000b0: ffb0 d03c 7e3a 8d3e 9792 ca3e 25a5 0b3f
000000c0: f7de ad3e e387 fa3c 83f5 c9be fe47 96be
000000d0: 20cc dbbd eaf8 09be f92d b8be 5120 2f3d
000000e0: a651 bb3e ea6b cc3e 16aa 0b3f 1291 9c3e
000000f0: ec0d 93bd 2d0a fabe f472 00bf 3bc1 cbbe
00000100: 8917 a1bd dadc 923e 6789 0f3e 1b2b b93d
00000110: 8959 93bc 8460 543e 3ac5 b23e 07d5 093f
00000120: 78e5 163f 29bf ae3e 06a7 80bc 727c 003f
00000130: 9dbb ad3e 0a26 d4be 97e3 163d 26f2 b63e
00000140: 5ef4 2a3f bf43 383e 1536 82bf 990f abbc
00000150: e3d5 953e 5c3f 083f 282f 51be fcca 55bf
00000160: 287c 323d cb89 d63d 6fdc 65be e889 e3be
00000170: a888 afbd 797b 0c3e 2312 033d 3147 53be
00000180: e255 893d 252c 803e c26c 713e 2b6c a0bd
00000190: 3c92 873d 8748 5dbe ae43 6bbf c4b2 6abe
000001a0: 6752 133e 3281 163f 082f 0abb 92c0 8dbf
000001b0: 5cb8 4cbd b3cf ad3e a998 d53e 9076 28be
000001c0: 2019 78bf 09c9 143e e5c8 ab3e 04b5 23bd
000001d0: 99e2 aabe 5ddb b2be a5f8 493e 846d 363e
000001e0: 17ab 183d 178a 2b3e 34d3 853e 60b3 563e
000001f0: 63dd 923e 7647 a43d 04cd 933d 0e21 0abf
00000200: ea04 d7bc 1591 e03d b381 ea3e 729c 273e
00000210: 026d 72bf 627f 9c3d 05e2 993e 7c99 013f
00000220: bed0 52bd 263e 3fbf 3a52 483e 53f8 693e
00000230: ba5c 2e3e 1d34 93be cc12 46be 0c4c 9a3e
00000240: ce7e 43bc f45a 173d d097 e53d 6295 d33d
00000250: 1625 513e 51f0 313e 47c6 69be 2d4e 87be
00000260: 4dbe 94be 56ef 5ebd 7748 ee3c 070b 89bd
00000270: 52a6 b0bd a874 15be 4652 833c 2573 923d
00000280: d134 66be a9a2 8abe 61eb 44be 4a41 49be
00000290: c663 86be a13d b6bd 24aa 8fbe 11ea b2be
000002a0: 9e6c 20be 0f38 11be f583 a23d 35e1 c9bd
000002b0: d8db 90be 80be e5bc e6d1 063d 6b64 5dbe
000002c0: ba3a 06be 5412 4fbe 911d 913d 58e1 023e
000002d0: f136 9a3c 0ea1 393e 2e46 683e d16d 843e
000002e0: df63 0a3e b020 ca3c 97eb 233e 7160 433e
000002f0: a2fa 2c3e 74f3 063e 4014 1ebd 25ed 8dbd
00000300: 6118 3c3d a264 90ba 9c60 0fbe 5db7 87bd
00000310: bf18 c9bd 9e32 4cbd 0853 30bc 58a4 993d
00000320: 2db9 a6be 934c 94be 1d17 78bd e097 6cbd
00000330: 1ff0 86bc d768 f8bb f6e1 a03e 87b8 f33e
00000340: 42b4 aa3e 0215 1f3e c94c 743e 83e2 df3e
00000350: 97ef b53e e650 b43e efa1 9c3e ca10 dbbb
00000360: c845 843e bb92 703e 48d5 8d3e 5e9e 143e
00000370: 377b 2abc 2bce 9e3d cff7 3e3e d725 fe3d
00000380: b4e9 943d 17b7 233e 4dd3 e6bb 830e 95bd
00000390: ae5b 1e3d 91f2 463e deea 13be 66c5 29be
000003a0: f0cd 75be 9bf0 66be 6053 f0bb 6123 c9bd
000003b0: ffcd 78be 1450 8dbe a9a7 9fbe 22be 8cbe
000003c0: 192c 2bbe 1168 28be 5961 3abe 7df5 47be
000003d0: e156 81be 467c adbd d64b c6bd 807d 99be
000003e0: ab3a 50be efa9 06be 25a2 2fbd f77c af3d
000003f0: 927d 313d d886 36be 548e d2bd f395 ae3d
0.25423285 0.5437586 0.50722766 0.38979447 0.04749592 0.48915476 0.89197844 0.9870082
0.9245537 0.52480054 -0.15676428 -0.5372951 -0.78385437 -0.47459832 -0.059576303 -0.2939254
-0.4406196 -0.57016236 -0.57042235 -0.1982566 -0.2421118 -0.19578746 -0.13061504 -0.18001156
-0.2768097 -0.45237347 -0.18715656 -0.10841566 -0.105658896 -0.41582412 0.07478325 0.17111252
0.5065492 0.39723822 0.2377222 -0.2886491 -0.74421626 -0.89471143 -0.72467697 -0.09613444
-0.03652406 -0.19922805 -0.18496849 -0.20415094 0.025475023 0.27583688 0.39564964 0.54548866
0.3395917 0.030582374 -0.39445123 -0.293518 -0.10732293 -0.1347386 -0.35972574 0.04275543
0.3658573 0.39926082 0.54556406 0.3057943 -0.0718039 -0.48835889 -0.50175405 -0.3979586
-0.07865817 0.2868412 0.14017259 0.09041425 -0.01798703 0.20739943 0.34916097 0.5384068
0.5894389 0.3413022 -0.015704643 0.5018989 0.339322 -0.41435272 0.03683814 0.3573162
0.66779125 0.17994593 -1.0172755 -0.020881461 0.29264745 0.5322168 -0.20428145 -0.83512855
0.043575436 0.10475501 -0.2244737 -0.44441152 -0.08570987 0.13718976 0.03199972 -0.20632626
0.06705834 0.2503368 0.23576644 -0.078331314 0.06619689 -0.21609698 -0.91900146 -0.22919756
0.14386903 0.58790886 -0.0021085162 -1.1074393 -0.049980506 0.33947524 0.41718033 -0.16451478
-0.9691334 0.14529814 0.33551708 -0.03996755 -0.33376005 -0.34932986 0.19723757 0.17815214
0.03727254 0.16751896 0.26137698 0.20966864 0.2868453 0.080214426 0.07216838 -0.5395669
-0.02624746 0.10965172 0.45802078 0.16368273 -0.9469758 0.07641484 0.30055252 0.50624824
-0.051468603 -0.74704206 0.19562617 0.22848634 0.1702756 -0.28750697 -0.19343108 0.30136144
-0.011932088 0.036951974 0.112105966 0.10331227 0.20424303 0.1737683 -0.22829543 -0.2642683
-0.29051438 -0.054427467 0.029087288 -0.066915564 -0.08625473 -0.14595282 0.016030442 0.07150868
-0.22481085 -0.27077225 -0.19230415 -0.19653812 -0.26247996 -0.088984735 -0.28059494 -0.34944203
-0.15666434 -0.14181541 0.07935325 -0.09857408 -0.28292727 -0.028044939 0.03291502 -0.21620338
-0.1310834 -0.20221835 0.070857175 0.12781274 0.018825026 0.18127844 0.22683021 0.25865033
0.1351466 0.02467379 0.16007839 0.19079758 0.16892484 0.13178807 -0.03859353 -0.06929997
0.045921687 -0.0011016319 -0.14001697 -0.06626771 -0.09819173 -0.04985296 -0.010761984 0.07502049
-0.32563153 -0.28964671 -0.060568918 -0.057762027 -0.01647192 -0.0075808573 0.31422395 0.4760172
0.3334065 0.15535358 0.23857416 0.43727502 0.35534355 0.3521797 0.30592296 -0.006685351
0.2583449 0.23493473 0.27701783 0.14513537 -0.010405353 0.07754167 0.18649219 0.12409561
0.07271138 0.15987812 -0.007044232 -0.072781585 0.03866165 0.19428469 -0.14445063 -0.16579208
-0.2400434 -0.22552721 -0.007334158 -0.09821201 -0.24297331 -0.27600157 -0.31182602 -0.2748881
-0.1671604 -0.16445948 -0.18201198 -0.1952724 -0.25261596 -0.08470969 -0.09682433 -0.2997856
-0.2033488 -0.13150762 -0.042879242 0.08568757 0.043332644 -0.17824876 -0.10281053 0.08524694

conv1.bias f4 [6]
00000000: a076 1abf 7d2b 8bbe e9a4 663e b97b b93e
00000010: 5802 9a3e 1584 673e
-0.6033726 -0.27181616 0.22523846 0.36227205 0.30079913 0.22608979

conv2.weight f4 [16, 6, 5, 5]
00000000: 95e5 2abd f42e f3bd b564 a33c 20ec 82bd
00000010: a9b0 8e3d fda5 fbbd 5772 2ebd af84 053d
00000020: 29f5 0d3d 3054 68bd 81a4 c03d 8a68 713d
00000030: 978d 58bc c185 483d 0cf9 28bd 6f14 11bc
00000040: d7e7 0d3d f616 4dbb cdd3 963c c2c9 52bd
00000050: 78e1 92bd 73e3 edbc 8705 07be af92 17be
00000060: 8c47 6ebe dece a93d d317 5e3d 9c1f b13a
00000070: e321 4c3e 823f 813e 14db dcbd 687d 3c3e
00000080: 149b 10be 3132 593e 3fb4 98bd 5ffd b5bd
00000090: c4c5 f33e 3819 bc3c 4869 a33e 1dfc 8dbd
000000a0: 636d c3bd da65 8e3c 3005 b8be d306 bb3d
000000b0: fd73 ccbe ac52 49be 5d2c 1abf ca29 09bf
000000c0: 2928 e4be bd1e 89be 06d3 d5bc 2647 093d
000000d0: 80f7 cf3d 0a5e 4b3e 84e1 f7bd b543 58bd
000000e0: bf7f 7bbc be89 f23d 26d5 f5bc 6063 28bd
000000f0: 6750 b5bc 3ffb 6b3c 098e 6d3d 481e eebd
00000100: 551f 0ebe 5442 ad3c 6275 233d 5c97 323e
00000110: 51c4 913d 49b7 26bd 3c9d 7dbe 0915 d0bd
00000120: 4ff6 11be 0594 00be 4085 2abe c3fc a63d
00000130: 1a98 293e 7d39 043e 7487 b23d a7e8 2f3e
00000140: 80c3 01be 429d 983d c4d9 2f3d 12e7 793d
00000150: f5fe 113d 5154 3abe 78c2 173c a001 bbbb
00000160: 6305 273d 0298 45bd 2ea9 83bd 931e e2bc
00000170: ffec 0d3e 2ece 3ebc 9da6 2cbe 45ea d4bd
00000180: 9b7e 2cbe 3868 c3bd cf06 36be 72d7 72be
00000190: 9f92 8dbe dc22 b1be d1d3 a4be a149 5abe
000001a0: 41bb 84bd 6909 85be 540d 3bbe eb75 8bbe
000001b0: 38b6 4abe 6092 04bd 7974 2cbe cd5f 1cbe
000001c0: e8a2 73be 7945 6abe 0627 dcbd 5e7e b73d
000001d0: b3c7 c23d c61a f63c 9e4d 513c 7be8 093e
000001e0: 1043 783e 565d 063e e4ae de3d 5e03 6e3e
000001f0: fdd8 343e 8255 ec3e 2977 753e 9f67 ee3d
00000200: e617 cb3e 773b 523e 76c3 c13e b82b 953e
00000210: bddd 7c3e d6b1 8d3e 7712 643e c700 7a3e
00000220: 6ac6 063e dbf7 303e 851e e33d e763 ed3c
00000230: a669 1dbd b917 1cbe ab82 d43c 450e bcbd
00000240: 4c72 2cbe bbf3 04bf 7d22 d5be 4367 62be
00000250: 8cb0 62be 2575 bebe e72d 63bd 1a20 a1bd
00000260: 3414 9f3d 07c9 473e 9283 063e 5c81 cdbd
00000270: 3078 ee3c 6d8c 2b3d e125 bd3d b155 573e
00000280: 33eb ab3b e3e8 bebd ef7e d0bd 2c86 28be
00000290: 91a8 1cbe 2c8e 083e 12d3 373d 9832 4ebe
000002a0: fbd7 85bd 90b4 2fbc f327 3fbe 2fc1 59bb
000002b0: 472c aebc ac6f 653d 6d1b e4bd 532a 2d3e
000002c0: 8c29 463e 6a51 aa3d 3220 babc a970 15be
000002d0: 5fb6 0e3e eb25 283e e294 59bc 19af 28be
000002e0: 51e2 37be ca4a 5a3e 9200 203e 6eb9 603c
000002f0: 7e1d d0be 4e7a 47be 3a35 713e 6dc7 79bd
00000300: b8d8 f2bd d520 d5be feb8 73bd b1f5 4c3e
00000310: 8ae8 da3e 24da 17be a6d0 2a3e 8b91 8dbe
00000320: f320 043e 8f7a a73d 6108 09be bf05 00be
00000330: c298 46be d54c 793d 3091 86bd f293 e2bd
00000340: ee04 94be e1e8 f7bd fadd 2c3e cee2 c9bd
00000350: 6f2c fdbd 3ec4 3ebe 9481 d5bd da5e 873d
00000360: abad 36be e37a 4abe 4355 23be 671e 4dbe
00000370: b3ea ea3d 17c7 40bd 58f7 2bbe 0ef0 57be
00000380: 1ae9 46be 9295 a13c 299c 4a3c 4be4 04bd
00000390: b6c8 2bbe dbb5 95be 03ff 2ebd 6efc cdbd
000003a0: dd58 02be 6832 8bbe d5a2 bfbe 25ce acbd
000003b0: 86ef 09be 91d5 54be 55ef 83be 78ac 9dbe
000003c0: 4d44 09bd 9e07 4fbd d020 0dbe e96d 7abe
000003d0: 2a08 23be 95ca 183e 070d d53d ff89 fbbc
000003e0: a502 57be c506 abbe 2faf a7bc 7a87 403d
000003f0: 02ba 903c 5058 e03d 2b41 ac3d 2d3a e3bd
-0.041722853 -0.1187419 0.019945482 -0.063926935 0.06967289 -0.12287519 -0.04258951 0.03259724
0.03465763 -0.056720912 0.09406377 0.058937587 -0.013217351 0.048955683 -0.041253135 -0.008854969
0.034644928 -0.0031294203 0.018411541 -0.051461942 -0.07171911 -0.02903912 -0.13185702 -0.14802049
-0.2326948 0.0829141 0.05422194 0.0013513449 0.19934802 0.25243765 -0.10783973 0.18407214
-0.14121658 0.21210553 -0.07456254 -0.08886217 0.4761182 0.022961244 0.3191626 -0.069328524
-0.09542348 0.017382551 -0.35941458 0.09132161 -0.39932242 -0.19660443 -0.60223943 -0.5357939
-0.4456189 -0.26781264 -0.0261016 0.033515118 0.10154629 0.19860092 -0.121035606 -0.052798945
-0.015350281 0.118426785 -0.030008864 -0.041110396 -0.022133065 0.014403163 0.057996783 -0.116268694
-0.1387914 0.021149792 0.039906867 0.17440552 0.071175225 -0.040702138 -0.24767011 -0.10160262
-0.14254116 -0.12556465 -0.16652393 0.08153679 0.16561928 0.12912555 0.08717242 0.17178594
-0.12672234 0.074518695 0.042932287 0.06101138 0.035643537 -0.18196227 0.009262674 -0.005706981
0.04077662 -0.04824067 -0.06428753 -0.02760247 0.13859938 -0.011645837 -0.16860433 -0.10396246
-0.16845171 -0.095413625 -0.17776035 -0.23714998 -0.27650926 -0.34596908 -0.32192853 -0.2131715
-0.06481028 -0.25983742 -0.18266803 -0.27238402 -0.19796073 -0.032366157 -0.16841306 -0.1527092
-0.23792613 -0.22878064 -0.10749631 0.089596495 0.09510746 0.030042063 0.012774853 0.1346759
0.24244332 0.13121542 0.108732015 0.23243472 0.176609 0.46158987 0.23971237 0.11640858
0.3966667 0.20530497 0.37844437 0.29134917 0.24693961 0.2767474 0.22272669 0.24414359
0.13161626 0.1728205 0.110898055 0.028978301 -0.038430832 -0.15243424 0.025941214 -0.09182409
-0.16840476 -0.51934403 -0.41627875 -0.22109704 -0.2213766 -0.3719875 -0.055463698 -0.07867451
0.07767525 0.1951028 0.13136128 -0.10034439 0.029110044 0.041881967 0.092357405 0.21028782
0.005246544 -0.09321763 -0.10180461 -0.16457433 -0.15298678 0.13335484 0.044879027 -0.20136487
-0.06535336 -0.010724202 -0.18667583 -0.0033226719 -0.021261347 0.0560147 -0.111380436 0.16910677
0.19351786 0.0831631 -0.02272043 -0.14593758 0.13936757 0.16420715 -0.013280125 -0.16473044
-0.17957427 0.21317592 0.15625218 0.013716085 -0.406475 -0.1948025 0.2355546 -0.060981203
-0.11857742 -0.4162661 -0.059502594 0.20015599 0.42755538 -0.14829308 0.16681156 -0.27650103
0.12903194 0.08177673 -0.13382103 -0.12502192 -0.1939421 0.06086429 -0.06570661 -0.110633746
-0.2891001 -0.12104965 0.16881552 -0.09857713 -0.12361991 -0.18629548 -0.10425106 0.066098884
-0.17839687 -0.1977344 -0.15950494 -0.20031129 0.114705466 -0.047064867 -0.16793573 -0.21087667
-0.19424859 0.019724641 0.012366333 -0.03244428 -0.16775784 -0.29240307 -0.042723667 -0.10057913
-0.12729211 -0.27186894 -0.37428918 -0.084377564 -0.13470277 -0.20784594 -0.25768533 -0.30795646
-0.033512402 -0.050544374 -0.13782048 -0.2445599 -0.15921083 0.14921029 0.104028754 -0.03070545
-0.20997103 -0.33403602 -0.020469276 0.0470042 0.01766682 0.10954344 0.08410867 -0.110950805

conv2.bias f4 [16]
00000000: 02cf f63d 02f5 503f 8319 11bf 2bd3 973c
00000010: 1b1e c33e 1688 523e d8d1 eabe e30c ab3e
00000020: 35b3 4ebf 67b2 723f 8f22 d43e 3822 58bf
00000030: a4b6 d4bd 4466 f53f e146 82be 2ca3 69bf
0.12051202 0.8162385 -0.5667955 0.01853331 0.38108906 0.20559725 -0.45863223 0.3340827
-0.807422 0.9480347 0.41432616 -0.84427214 -0.103863984 1.9171834 -0.254447 -0.91264606

fc1.weight f4 [120, 400]
00000000: bfe2 5e3d ebe8 68bd ecb7 50bd 645b d7bd
00000010: 3a65 4e3d 2c5e 5ebd fe58 77bb f729 c63c
00000020: 923e 0f3d 3aa3 b53d fa5b 2fbd 54d8 333d
00000030: 0b53 933d 9dec c43c 1574 bfbd 3823 193e
00000040: e5b2 2c3e 91fc f53c 92c9 573c 6b54 193d
00000050: a9b3 e73d 0aad b93d 59db 16bd eac3 83bc
00000060: 883f 9d3d 2c64 be3d 9b2e 833d cc1f 613d
00000070: 8c42 733c 332e 4cbd 25c0 34bd 082d 583d
00000080: 4134 64bd 353e eebb d426 bcbd 25d8 5b3d
00000090: 3783 933c f842 dbbb 6b4b 9b3c 314e 66bd
000000a0: e627 eebc 5a75 803d 7d20 343c b390 2d3d
000000b0: d719 cfbd 7179 92bd 8352 e6bd 2dd3 bbbd
000000c0: 2b1e afbc b360 8fbd 8d5f 95bc 7e60 833d
000000d0: 1a1e 40bd 51de 673d fbbc a6bd bb43 b5bd
000000e0: 49f4 12bc 08b8 29bd b0c3 6fbd 9295 adbd
000000f0: 3b9f 22be 8bdc 9cbc 0ee4 c13b a3c1 28be
00000100: 9640 163d 8dfb b6bd 810e 5f3c df1e 913d
00000110: 301d c4bd 53b2 88bd 6b40 d9bd 7998 8fbc
00000120: 01c5 653b b8e8 67bd 205f 9dbc 372e 213e
00000130: 00ca be3d f9c0 6c3c 60e9 b73c 3d67 aabb
00000140: 025e 503e 47d1 b0ba e88d 783d c086 a03c
00000150: aab2 143d 4fb7 a9ba 5a30 98bc 9187 6d3d
00000160: 7875 c63b aa4c 3e3d b0d8 1e3d ed8d a3bd
00000170: 73b5 db3c af3c 0b3e c97f 483e 42b3 d6bb
00000180: ba96 30bd b7d0 973d 6cc4 313e 6aa4 613e
00000190: b7ca cdba fbcd 5e3c 25e3 443d 608a c63b
000001a0: 27e1 093e b042 cabc 41d7 2fbd 3058 94bd
000001b0: a619 9d3d 6d14 a43d df64 5dbd 5f2f 963d
000001c0: 22c9 d0b9 7308 e8bc 9c64 cb3c eb08 b63c
000001d0: 8b21 f7bc cca8 f9bd 5f90 19be 3e2f 84bd
000001e0: c4b1 213d 8114 04ba af6d f1bd 7d46 63be
000001f0: 68f0 2abe 0510 123d b31c 7f3c 0b04 cfbb
00000200: b800 59bd 4cf6 5f3d a106 e5bd 14e3 8e3c
00000210: ad02 8239 0f49 e5bd c2be c2bd 1d06 c8bd
00000220: 167c b1bd f143 e1bd 8a13 22be 2c65 eabc
00000230: 1dd8 2fbd 4d74 86bc a182 10bd a051 c0bd
00000240: faae 5fbd 154f a43d d40a b5bd 8f92 5ebd
00000250: 57a3 40be 0e6b 31bc bec3 e4bd 315c 99bd
00000260: 7b53 9abc 1b77 083c 3c75 00bd 70c7 81bc
00000270: 4f0c cbbd 1e93 3dbd cbde f0bc 700f 28be
00000280: 24ef b1bb 33e8 28bd 35cc 10be a9c9 cdbd
00000290: b0e9 44bd 888d 033e 12c8 9d3d c0f3 5fbd
000002a0: ee5d 78bd b39e 05bd f50b 6b3e c3b5 5f3d
000002b0: d55e c0bc a3b2 a7bd 0cf1 1ebe 50dc 1b3c
000002c0: f64b ccbc 0fd0 ccbc 7bda ffbc 588f 6f3d
000002d0: cd0a 27bc 57a7 9dbd 779e b5bd 2005 0dbe
000002e0: c2af b6bc 3dc7 b73c b378 93bd 3be9 5bbd
000002f0: 47c9 bcbb 28b2 20bd b77a 45bd a726 c2bc
00000300: 867a f5ba e43d edba cbd3 fe3c 9c18 1bbd
00000310: 3108 b13d 3744 d53d 25ba 7c3d 8515 de3d
00000320: 9a3c dbbd d861 64bd b146 5e3d ec22 923d
00000330: 0dbb bc3c 2d8c 1dbc 39dc 4cbc 6b8a b73d
00000340: 60be a43d e023 00bd 4e0f b5ba 4a95 683d
00000350: 9c10 ce3d a4bf f83d 7746 b73d f57b be3d
00000360: 2e53 9c3d 1f23 90bb 5d30 ab3d 0072 9c3d
00000370: 4b0d f93c 3129 73ba 93ae 72bd 5e8d 043d
00000380: 755a 1f3d 2c7a c33c b7c4 993d e903 1f3d
00000390: d3da 94bc e9cb f53c b0bb 9ebd d794 87bd
000003a0: 71fe 98bd 2a68 1cbd c4b1 0abd 9d05 f8bd
000003b0: 1a2a 79bd c285 51bd eda9 f7bd 4702 0dbb
000003c0: 9f18 54bd 8afb d33d fc67 87bd da0f 2cbd
000003d0: 3550 b33d 62e8 a3bd d426 c7bd 6e01 c4bc
000003e0: dea5 e83c 6110 1d3d 9b8d 8a3d ef1c bd3b
000003f0: ed6c a8bb 1bbb 02bd aeb8 9bbc cc0f c33d
0.05441546 -0.056862753 -0.05095665 -0.10515478 0.050389506 -0.054289028 -0.0037742252 0.024189932
0.03497178 0.088690236 -0.042812325 0.04390748 0.071935736 0.024038607 -0.09348313 0.14954841
0.16865118 0.03002766 0.013170617 0.037434023 0.11313564 0.09066208 -0.03683028 -0.01608463
0.07678133 0.0929645 0.06405374 0.054961964 0.014847409 -0.049848747 -0.044128556 0.05277732
-0.055713896 -0.0072705992 -0.091870934 0.05367293 0.018006904 -0.006691333 0.01895686 -0.056226913
-0.02907176 0.06272383 0.010994074 0.042374324 -0.101123504 -0.07152069 -0.112462066 -0.09171138
-0.02137669 -0.07000866 -0.018234039 0.06414889 -0.046903707 0.0566085 -0.08141514 -0.08850809
-0.008969375 -0.04143527 -0.05853623 -0.08475794 -0.15881054 -0.019148132 0.005917079 -0.16480117
0.036682688 -0.08934698 0.013614298 0.07085966 -0.095758796 -0.06674638 -0.1060799 -0.01752876
0.003506005 -0.056618422 -0.019210398 0.15740286 0.09315872 0.014450305 0.022450149 -0.0052002952
0.20348361 -0.0013490104 0.060682207 0.019595504 0.0363032 -0.0012948307 -0.018577743 0.057990614
0.006056484 0.04645983 0.038780868 -0.079860546 0.02681992 0.13597368 0.19579996 -0.006552131
-0.043112494 0.07412856 0.17360085 0.22035375 -0.0015700673 0.013598914 0.048068184 0.006058976
0.13464795 -0.024690002 -0.04292989 -0.07243383 0.07670908 0.080117084 -0.054051276 0.07333254
-0.00039822707 -0.028324341 0.024828248 0.02222105 -0.030167362 -0.121903986 -0.1499648 -0.06454323
0.03947617 -0.0005038456 -0.117884986 -0.22194858 -0.1669327 0.03565981 0.015570807 -0.0063176206
-0.0529792 0.054678246 -0.11182905 0.017442264 0.00024797526 -0.111955754 -0.095090404 -0.09766791
-0.08666246 -0.10999287 -0.15827766 -0.028612696 -0.04293071 -0.016412878 -0.035280827 -0.09390569
-0.05461023 0.08022896 -0.08839956 -0.054338988 -0.18812309 -0.0108287465 -0.11170147 -0.07488287
-0.018838635 0.008329178 -0.031361803 -0.01584217 -0.09914457 -0.04628288 -0.029403111 -0.16412139
-0.005430119 -0.041237067 -0.14140399 -0.10048229 -0.048074424 0.12846959 0.07704176 -0.054675817
-0.060636453 -0.03262205 0.2295378 0.0546167 -0.02348272 -0.08188369 -0.1552164 0.009512976
-0.024938565 -0.025001554 -0.03123211 0.058486313 -0.010195446 -0.07697933 -0.088681154 -0.13771486
-0.022300605 0.022433871 -0.07200756 -0.053689223 -0.005761299 -0.039232403 -0.048212733 -0.023700071
-0.0018728531 -0.001810011 0.03110685 -0.037865266 0.086441405 0.104134016 0.06170096 0.10843948
-0.10704918 -0.055757374 0.054266635 0.07135567 0.023038412 -0.00961594 -0.012503677 0.08961948
0.08044124 -0.031284213 -0.0013813765 0.056783 0.10061762 0.121459275 0.08948987 0.09300987
0.07633053 -0.004398718 0.08358834 0.07638931 0.030401846 -0.00092758524 -0.05924852 0.03236138
0.038904626 0.023861967 0.075082235 0.03882209 -0.01817075 0.030004459 -0.07750642 -0.06620186
-0.07470406 -0.038185276 -0.033860937 -0.12110446 -0.060831167 -0.051152952 -0.12092958 -0.002151625
-0.051781293 0.10350712 -0.0661163 -0.042007305 0.08755533 -0.08003308 -0.09724203 -0.023926463
0.028399404 0.0383457 0.0676529 0.0057712714 -0.005139938 -0.03191672 -0.01900896 0.095244974

fc1.bias f4 [120]
00000000: 83d9 71bc 6fe7 3b3e a158 9b3c b953 acbd
00000010: 2ad5 9fbd 5ea2 09bc fe73 2abd 415a 893e
00000020: 7438 09be 2cb6 6b3e 2cfa 03bd 6458 8cbd
00000030: 5680 003e 6a96 083b ec84 513e c38a 463e
00000040: 812e 15be 71df 8ebd 9b2e 8bbc 939e 983d
00000050: c1a7 0b3e d3bd aa3d 2975 e23e 25ad bebd
00000060: dda5 9d3d cc26 423d 324c e9bd f902 1bbe
00000070: f835 a63d f407 13bd 2688 22ba d827 083d
00000080: 5605 a83d bc80 ab3e b613 5abe 687f 8c3c
00000090: d1e0 453e 73c1 0d3e a2c5 dcbd f787 873e
000000a0: 2a4f c8bc b58c 87bd 703f 823c c7f4 083e
000000b0: 117e b03b fceb db3d d1a6 303e ce03 b63c
000000c0: b039 11be 6f32 3a3d a192 6bbe a69b a13c
000000d0: ecde bebc e042 7ebe c376 b0bd 031e e2bc
000000e0: 8a15 a2bd 2431 02bd dbce 683e 513f 8f3d
000000f0: 113b 273e 43db c93d e5c3 573e a0cb c8bd
00000100: a000 943b 773e 343d 77d4 713d 514d 073e
00000110: 4240 11be a54a 223e 8255 eabd d1dc a4bd
00000120: 8a6f 023d eeed e93d 0e9c 51be 8c4b c03c
00000130: 0ff0 36bd cc15 293d 6db3 3ebc cc68 e43c
00000140: 2056 e43c 5f64 ff3b 75e7 72bd 4d89 2e3c
00000150: 3d7c 443d 8de2 a2bd 40fe 683e d074 9d3e
00000160: c648 f63c 7cfb 213d 12e7 053e 22c9 553d
00000170: 3016 053e 7f21 3fbd 053e b43c 56c9 2ebd
00000180: 82a8 5f3c 9402 c53d a3b1 b73d 6fce 80bd
00000190: bad0 06be 7166 21bd 577b 513e e592 cc3d
000001a0: c6e7 fc3d 767b 4abd cd69 803e d57d 3c3d
000001b0: bcdb 643d c543 553b 2f19 6cbd b4e4 553e
000001c0: ad71 7abe 8787 a43d a81d 783e 127b 283e
000001d0: d3f9 78bd 90ed d53e 0274 fbbc a42d 073d
-0.0147613315 0.18350004 0.01896316 -0.08414406 -0.0780433 -0.008400528 -0.041614525 0.2682667
-0.13400441 0.23018712 -0.032221004 -0.06852797 0.12548956 0.0020841607 0.20460862 0.19388871
-0.14568521 -0.06976212 -0.016989997 0.07452121 0.13638212 0.08336987 0.4423001 -0.093103684
0.076976515 0.04740028 -0.11391486 -0.15137853 0.081157625 -0.035896257 -0.0006200097 0.033241123
0.08204143 0.33496654 -0.21296582 0.017150596 0.19324042 0.13843326 -0.10779883 0.2647092
-0.02445181 -0.066186346 0.01589939 0.13374625 0.005386122 0.1073837 0.17251135 0.022218611
-0.14182162 0.045458253 -0.23005153 0.01972754 -0.023299657 -0.24830198 -0.08616402 -0.027602201
-0.079142645 -0.031785145 0.22735159 0.069944985 0.16331126 0.09856274 0.21070822 -0.098044634
0.004516676 0.044004884 0.059040513 0.13213088 -0.14184669 0.15848787 -0.114420906 -0.0804993
0.031844653 0.114223346 -0.20469686 0.023473524 -0.04466253 0.041280553 -0.011639458 0.027882002
0.027873099 0.0077939476 -0.059302766 0.010652852 0.047970045 -0.079533674 0.22753239 0.30753183
0.030063998 0.039546475 0.13076428 0.05219377 0.12996745 -0.046662804 0.02200223 -0.042672478
0.013651015 0.09619632 0.089694284 -0.06289374 -0.1316556 -0.039404336 0.20457207 0.099889554
0.12348895 -0.049434148 0.2508072 0.04601844 0.055873618 0.0032541614 -0.057641204 0.20888025
-0.24457426 0.08033662 0.24230063 0.16453198 -0.060785126 0.41782808 -0.030694965 0.03300251

fc2.weight f4 [84, 120]
00000000: 2db9 02bc 3cd1 083d 1427 f4bd b948 00be
00000010: 81bd 0fbe 57b7 09be c3b2 023e 675d 1d3d
00000020: 6b83 9c3d 942d 13be ae31 44bd fb8d 2f3c
00000030: 9a22 1fbd 7264 5f3d 4027 2ebd 4174 6abd
00000040: 42d9 08bd 5bef 1abe 1a87 11be 6ff8 1c3e
00000050: 38d8 9ebc 8212 a8bd 8c72 d6bd dd0b b4bd
00000060: 75e0 2e3d 34a2 43be 4c1f 1bbd 95d5 27bd
00000070: a760 aebb 5cc1 333d 8e79 463e 1acc fcbd
00000080: fcda 793c 3360 b2bc bb83 92bd 7d18 c2bd
00000090: 46ce ebbb 3412 45bc cc69 72bd ec30 16be
000000a0: 571e 073d 9c1f 2d3e 4ac3 353d d963 333e
000000b0: c2a8 28bd 73b2 5e3b fe46 ef3c e82a b73c
000000c0: d87b 3c3d 1e99 0b3c 84e3 843c cb22 303d
000000d0: 84f0 433b c397 ccbc 529c afbd 71c6 d0bc
000000e0: c15a 42be 9be9 1f3e bf27 af3d 1443 6bbd
000000f0: 8080 c0bd ca58 c4bd 5f40 bc3d 1ae0 1b3c
00000100: 0bf8 5dbd e6c7 bd3d 1268 c5bd 3390 4a3c
00000110: a9de bdbd 3916 4e3c c029 c2bd b528 c4bc
00000120: c9fc 4cbd 8e5b 063d a818 a23d 3468 9bbd
00000130: 5721 033d 854d d13c 640a 7f3c 2134 083d
00000140: bd29 bb3d ec5b 3b3d ff54 8abd 07aa a73d
00000150: 6b07 00be 3006 27be 7cdb 223e 88e9 e73d
00000160: c8b1 163d a82f e3bd 2740 81bd 9fd4 9bbd
00000170: e032 c33d f471 8fbd 541c 14bd 3945 e0bd
00000180: 7e7c 55bd 284d 9d3d c916 69bd 6ea9 e6bc
00000190: a08e 793d 4453 1b3d b1ab ebbd ec73 72bd
000001a0: 3c7a 98bc 0c40 24bd c8b2 2f3d 503e f8bd
000001b0: 7a69 dfbc 6dc4 42bc 7cb2 343c 5916 2a3e
000001c0: 5b70 01be 6102 64bd 8817 17be e2cd e03d
000001d0: 6b72 033e cf6d a1bd 6dff 79bc 0900 253d
000001e0: 17de 3abb ce66 14bd 3731 f0bc b366 8fbd
000001f0: 6012 bb3b c1e0 ffbd 0c7b b93d 3bb9 a1bc
00000200: 5720 b4bd 1ff8 0abc 3913 2b3c ce4c 37bd
00000210: 2fda b3bd 9377 883c 74dd 25be 10df c03c
00000220: 7bf5 30be b7d8 00bd 96b8 89bd f332 e93d
00000230: c814 16bd 56ea deb7 1c7f 3e3d 878a 033e
00000240: 8776 9d3c df09 b0bd b2bb da3d c97b f7bd
00000250: d99d 84bc 7451 b83d 7d23 36be e5cf 913d
00000260: 51a6 d9bd d00b 0ebc f773 c33d 3ce8 33bd
00000270: 4d24 3e3d e67b 303d 7ccd 9b3d 089f eabd
00000280: 6dd1 9dbd f4ca a5bc 5267 0ebc 5428 693d
00000290: bf5b 12be 2376 04bd e6de adbd 4f5a 04be
000002a0: 71a7 16bd 1d35 cebd c9da 13be dc14 11bd
000002b0: 9e0e 643d 9c56 28bd cce0 f7bc cc65 813c
000002c0: a2f3 bebd 7034 403e ab2a 14bb fc98 973d
000002d0: 28e8 b3bd 45f9 ddbd 15a3 a2bd e14d 443d
000002e0: 1def 92bd 7760 123d d516 81bc 89e5 b2bd
000002f0: 61f5 53bd 8543 85bd 0f41 b1bc c4e3 5b3d
00000300: cca5 97bd 8413 55bd 7864 86bd ba23 d0bd
00000310: be7a d13c 7c0c 223e a705 e2bd dca0 8d3d
00000320: add9 003d aa2a 3cbe 7470 9abb 74e7 7a3c
00000330: b539 e33d e41e 393d e87e 7fbb a32a 713d
00000340: 6c9c 3f3c 7156 12be 6bfc a5bd 1e66 ecbd
00000350: ecab e0bb 0c1f 98bd 6416 13be f077 0b3e
00000360: 5361 293d acf2 1e3e f822 d6bd d41f 83bd
00000370: ed7e 673d b98b 37be 51cd d9bd 15ef c9bd
00000380: 03a0 763d 697f 463e 5efa 923d 38fe 0cbd
00000390: 74ec c03c 2fd0 603c 9407 cbbd 5c85 88bc
000003a0: 3022 61bd a115 1e3d 30bf 06be 6164 223e
000003b0: 516f d03d ff66 b6bd c802 073d 0671 c33c
000003c0: 9455 abbd 2b00 7abd 4d97 af3c 0d98 2bbd
000003d0: 4055 233d 2283 c3bd 2f8f 5cbd a72a 85bd
000003e0: 5076 6bbe 0c96 a83d 99f5 1fbd 30d1 f5bc
000003f0: 51c9 cb3c 1438 76bd a4c9 33be 0eb7 4a3d
-0.00797872 0.033402666 -0.11921516 -0.12527741 -0.14037134 -0.13448845 0.12763505 0.038419154
0.076422535 -0.14372855 -0.04789894 0.010715003 -0.038851358 0.05453915 -0.0425179 -0.057239775
-0.03341032 -0.1513037 -0.14211693 0.15329145 -0.01939021 -0.08206655 -0.10471067 -0.08791325
0.042694528 -0.19104844 -0.037871644 -0.040975172 -0.0053215805 0.043885574 0.19382307 -0.12343617
0.015249964 -0.021774387 -0.07154032 -0.09477327 -0.0071962206 -0.012028266 -0.059182927 -0.146671
0.03298792 0.1690659 0.044375695 0.17518558 -0.041176565 0.0033980876 0.029208656 0.022359326
0.046016544 0.008520393 0.01622177 0.04300193 0.0029897997 -0.02497471 -0.085747376 -0.02548525
-0.18979932 0.15616457 0.08552503 -0.057437018 -0.093995094 -0.09587248 0.09191965 0.009513879
-0.05419163 0.09266643 -0.096389905 0.012363481 -0.09270985 0.0125785405 -0.094806194 -0.023945192
-0.050045762 0.032802157 0.07914859 -0.075882345 0.032014217 0.02554966 0.015566442 0.03325284
0.0913882 0.04574196 -0.06754493 0.08186727 -0.1250283 -0.16310954 0.15904039 0.113238394
0.03679064 -0.11093074 -0.06311064 -0.07608914 0.09531188 -0.07004157 -0.03615983 -0.10950703
-0.052120678 0.07680732 -0.056906495 -0.028156962 0.060927033 0.037921205 -0.11507357 -0.059192583
-0.018612973 -0.040100142 0.04289511 -0.1212126 -0.027271975 -0.011887652 0.011028882 0.16610087
-0.12640516 -0.05566633 -0.1475507 0.10976769 0.12836616 -0.078822725 -0.015258652 0.040283237
-0.0028513724 -0.036230855 -0.029320342 -0.0700201 0.0057089776 -0.1249404 0.090566725 -0.019741645
-0.08795231 -0.008482008 0.010441595 -0.04475098 -0.087818496 0.01665858 -0.16197759 0.023543864
-0.17281143 -0.031456675 -0.0672466 0.11386671 -0.036640912 -2.6573583e-05 0.04650794 0.12845813
0.019221557 -0.08595633 0.10680331 -0.12084157 -0.016188549 0.08999911 -0.17786975 0.07119731
-0.106274255 -0.0086698085 0.09543603 -0.043922648 0.046421338 0.04308691 0.076075524 -0.11456114
-0.077059604 -0.020238377 -0.008691626 0.056923226 -0.14292811 -0.032339226 -0.0848978 -0.12925075
-0.03678078 -0.10068724 -0.14438929 -0.035420284 0.055678003 -0.041098222 -0.030258559 0.01579561
-0.09323813 0.18770003 -0.002260844 0.07402226 -0.08784515 -0.1083856 -0.07941262 0.047925834
-0.071745135 0.035736527 -0.015757957 -0.087351866 -0.051747683 -0.06507019 -0.021637468 0.05368401
-0.0740467 -0.052020565 -0.06562132 -0.10163064 0.025571223 0.15825075 -0.11036234 0.06915447
0.03145759 -0.1837565 -0.0047131125 0.015313972 0.11094991 0.045195475 -0.0038985554 0.058878552
0.011695009 -0.14290787 -0.081047855 -0.11542915 -0.006856432 -0.07427797 -0.1436401 0.13619971
0.04135258 0.1552226 -0.104558885 -0.06402555 0.05651753 -0.17924394 -0.10634864 -0.098600544
0.060211193 0.1938454 0.0717666 -0.03442213 0.02355025 0.01372151 -0.09913555 -0.016665153
-0.054964244 0.038594846 -0.1315887 0.15858604 0.10177482 -0.08906364 0.032961637 0.023857605
-0.08365932 -0.061035316 0.02143445 -0.041893054 0.039876223 -0.09546496 -0.053847488 -0.06502276
-0.22994351 0.08231744 -0.03905258 -0.030006975 0.024876269 -0.060112074 -0.17557389 0.04949098

fc2.bias f4 [84]
00000000: c6e8 1c3e 317f 023e ece5 293e 1186 173e
00000010: 2575 00bc 3640 d4bd 76df 893e c1cc c93e
00000020: 1f8f c33d e2dd b63d c99e f93c 0de8 bd3c
00000030: 4c14 a4bd 224d 173e 16cb 0abd 772c 193d
00000040: 4157 a53e b46c c73d 5cab 913d 8eb8 1ebc
00000050: c3ce 9e3e 41f8 d33d dd2a 8b3e ab86 573e
00000060: 0642 543e e3f5 d93e 9cbe ed3d c0e6 1ebe
00000070: bd29 9abd 002a 3abd 1153 9b3d f389 443d
00000080: 5bbb 643d 5582 093d c990 3dbe 5b1d 9d3e
00000090: 71b0 7ebd 98d4 363f b633 37bd 1c10 073f
000000a0: e802 013f 1e50 1bbd e415 a03e 2b16 9d3e
000000b0: 6b8d a83e 4380 293e 2c6b 043f 4456 893e
000000c0: e68e 5b3e ec17 853e dec9 80bd cea1 213f
000000d0: be1a b5bd 58b5 7ebd 1cd4 de3d 5580 243d
000000e0: 893a 663e 80f0 d73d cfd1 c33d f3be d43d
000000f0: 6fd9 f03b c294 c7bb 6cec 2c3e 2ade 30bd
00000100: 488f 263e 40c4 703e 9048 db3e 5de8 ce3d
00000110: d110 ff3d 16e2 143f 9cd7 723e 7a15 ab3e
00000120: dcbf b23e efe0 b2bc 006f 893d 42e2 113e
00000130: e949 b3bd 2612 ddbc 0d14 d4bd 7879 4bbb
00000140: cb25 413e 5289 2c3f 3adc 72bd 9a46 573e
0.15323171 0.12743832 0.16591614 0.14797236 -0.007840429 -0.1036381 0.269283 0.39414027
0.095487826 0.089290395 0.030471222 0.02318194 -0.08011684 0.14775518 -0.033885084 0.03739592
0.32293132 0.0973753 0.07112762 -0.009687556 0.31017122 0.10350085 0.2718114 0.21047466
0.20728311 0.4257041 0.116086215 -0.15517712 -0.07527492 -0.04545021 0.07584203 0.04798312
0.05584274 0.03357156 -0.18512262 0.3068646 -0.062179986 0.7141814 -0.04472705 0.52758956
0.5039506 -0.037918203 0.312667 0.30680975 0.32920393 0.16552834 0.5172603 0.26823628
0.2144123 0.25994813 -0.06288503 0.6313752 -0.08842991 -0.06218466 0.108803004 0.04016145
0.22483267 0.105439186 0.09561502 0.10387983 0.007350139 -0.0060907314 0.16887063 -0.043180622
0.16265595 0.23512363 0.42828798 0.101029135 0.12454379 0.5815748 0.23715061 0.33414823
0.34912002 -0.021835772 0.06710625 0.14246467 -0.087543316 -0.026986193 -0.10355387 -0.0031047743
0.18862073 0.67397034 -0.059292056 0.21023026

fc3.weight f4 [10, 84]
00000000: 1569 0e3c 69cd 94bd 3706 60be 31ca 70be
00000010: beb4 dbbd 6dc1 4f3d 3391 83be 0fa6 8f3e
00000020: 453b b33d 1ca8 81bd 7434 8b3d f81d e43d
00000030: 6348 603e 2c48 8cbd c6be c4bc d769 693d
00000040: aa3d a73e 8e7d 99bc 7b98 45be 331e c5bd
00000050: 2485 543e 4aa2 293e 95ea dfbd 1787 803e
00000060: 26a1 a3bd 9283 08be 607b 21be af38 a7bd
00000070: 03f9 2d3e 94d5 9ebc 14dc 50bd d4a1 113e
00000080: 33e9 503e 058f a93d af9f 373d 607f 91bd
00000090: ee91 823c 43b9 453e 07d0 833d ff2e 83be
000000a0: dd61 08be e8a7 123d 2656 493e 7802 163e
000000b0: 58a4 06be 2ef0 ecbd ebe1 eabd ce0c bc3d
000000c0: 216d b9bb 1189 a1bd e6cf 843b d821 d33d
000000d0: 7cf4 e53d fd12 f43d 932b af3d 08cc 0cbe
000000e0: 53e9 b9bd dc24 8ebc 19d4 7f3e e969 d4bc
000000f0: 82cb 1bbc dcb4 61bd 5fe5 24be 7a99 853d
00000100: cd7c 5b3d d975 833e c6c3 26be 68c1 2a3e
00000110: 0cc7 143d 3305 88be 4af5 eb3d 0e0c 5b3e
00000120: f6d1 2bbe ace9 323e c5b1 e9bc 2b17 933d
00000130: 2fd5 a7bc 6ab4 e4bd 877f 133e e249 a33d
00000140: 70c9 453c 96dc e1be 1f6f 6a3e b757 69bc
00000150: ff22 2f3b 2366 353e 4ab0 05be 5ce8 58be
00000160: 69f7 0bbe 6eec 2cbc c6aa 22bc 727b 843e
00000170: c13d 97be 4596 233d 09dc 6a3e 4db8 56bd
00000180: ffac 583e add8 1cbe 6364 983e 8d15 87bd
00000190: 0375 9ebd f678 503d 0726 f43d 72da 8b3c
000001a0: b883 0fbe a586 0d3d 2fe4 88be 161b 773e
000001b0: 7870 2d3e e582 433e a311 edbd 9b07 3e3e
000001c0: 78db 33bc 69c6 f4bd d2dd fb3d a1c6 1ebe
000001d0: 775c a0be d975 d33b eb3a b0bd fc80 4ebe
000001e0: 4164 f8bc 8440 e1be 4d04 c9bd 3fb2 adbe
000001f0: 10f2 17be ad74 87bd f3c2 a53d ef1a 1abe
00000200: a712 82bd f694 7d3e 95fb b2be 8647 70bc
00000210: 9516 f1bc 1707 7e3d 2970 ee3d 6ca4 94bd
00000220: 8174 d1bc 91df 7a3d eca6 593d 0e88 2d3d
00000230: 9d0a b0bd cae8 6d3d 666a 933e b11b cabc
00000240: 9eda 2e3d 532d 8cbd 148f 8d3e 9878 ad3d
00000250: b9f9 4e3e 3aae b23d af6b 6abe 778d 77bd
00000260: b1bd 97bc f788 73be 7bb1 e83c 61fb a4be
00000270: 6ab8 80bd a27e 2b3e 461e cd3d 066d 2ebe
00000280: 2f4b 97bd d568 c53d cf09 5c3d 5cad 143e
00000290: 4d5c 543e 7be5 f9bc 314d 3cbe 82be ac3d
000002a0: a52f 54bc e051 443d 80d9 b23d 635a 4ebc
000002b0: e2b6 93bd de0c a4bd 97c0 2c3e f7c8 efbd
000002c0: b0e8 7c3e 07f7 8bbc 21a1 3dbe 134a 4f3d
000002d0: 2f90 0bbe 2b9d 833d 3d00 c73d 2917 2e3c
000002e0: e3bf 0f3e 1dc5 2dbe 367d fabd c3a9 69be
000002f0: ea52 1abb 2bdf 83bd ba7d 193e 675c 8bbd
00000300: 2007 03be d021 053e 485a 983d e382 85bd
00000310: 73f9 f63d f00d e83d ae18 19be 9818 8d3e
00000320: bda4 d2bd 2b29 99bd e9b6 c63d ff59 8dbd
00000330: 05be 4b3d 9fc7 903d 9c1b b93d c6b0 1ebd
00000340: c343 b93e a17f 203e 606b e83d 6f02 9e3e
00000350: afa9 1dbe 8481 1c3e 7653 8d3e 0ff9 b7bd
00000360: fdfd 493b 5fa7 7abb 447f f2bd c07f 96bd
00000370: 9386 1f3d c2c9 88bd 7c3c d23b f794 873c
00000380: 5352 413e 753b 2bbe d12c 46be 1050 553e
00000390: 82bd b93d d59d 963c 4f65 c1bd b546 093d
000003a0: 4f97 26be 265c 113e e4db 8f3d 937b 8d3d
000003b0: 03fd 983d 42e8 813e e52a a1bd bd3e 1ebe
000003c0: 010b e83d ac8c a23a f72a 5abc 4fb7 e93d
000003d0: 28c8 c0bd 3f2b a5bd a5a2 e5bd 5b31 eebd
000003e0: ec76 5abd c888 123d 5719 493e 11ce 0bbe
000003f0: 700b 07bd 0c38 e7bc b45f 01be 6fcc 223e
0.008692046 -0.072657414 -0.21877371 -0.2351463 -0.10727833 0.050721575 -0.25696716 0.2805638
0.08751539 -0.063308924 0.06797114 0.111385286 0.21902613 -0.06849703 -0.02401675 0.056985702
0.32664233 -0.018736627 -0.19296448 -0.09624901 0.20753914 0.16565815 -0.10933415 0.25103065
-0.07989721 -0.1333144 -0.1576972 -0.081651084 0.16989522 -0.019388951 -0.050991133 0.14221889
0.20401458 0.08279232 0.04483002 -0.07104373 0.015938725 0.19308953 0.064361624 -0.25621793
-0.13318582 0.03580466 0.1966177 0.14649379 -0.1314863 -0.11569248 -0.11468872 0.0918213
-0.005658761 -0.078874715 0.0040531037 0.103091896 0.11228272 0.11917684 0.08553233 -0.13749707
-0.09077706 -0.01735156 0.24983253 -0.025929408 -0.009508969 -0.05510412 -0.16103123 0.06523414
0.053585816 0.25675848 -0.16285619 0.16675341 0.03632264 -0.26566467 0.115213946 0.21391317
-0.16779312 0.17471951 -0.02852715 0.07182153 -0.020487396 -0.11167224 0.14404117 0.079730764
0.012071952 -0.44113606 0.22893952 -0.014242104 0.002672374 0.17714743 -0.1305553 -0.21182388
-0.13668598 -0.010554416 -0.009928411 0.2587543 -0.29539302 0.03993823 0.22935499 -0.052421857
0.21159743 -0.1531703 0.2976409 -0.06595907 -0.07737162 0.050896607 0.11921316 0.017071936
-0.1401509 0.034552235 -0.2673659 0.24131426 0.16937435 0.19092901 -0.115756296 0.18557589
-0.010977618 -0.11951906 0.12298168 -0.15505458 -0.31320545 0.0064532575 -0.08604988 -0.20166391
-0.030321242 -0.43994534 -0.098152734 -0.33925053 -0.14838433 -0.06614051 0.08093824 -0.15049337
-0.06351214 0.24763855 -0.34957567 -0.01466549 -0.029429713 0.06201848 0.116424866 -0.072579235
-0.025568249 0.061248366 0.053137705 0.04236608 -0.08595774 0.058083333 0.28792113 -0.024671407
0.04268896 -0.068445824 0.27648222 0.08470267 0.20212449 0.08724637 -0.2289264 -0.060437646
-0.01852307 -0.23782717 0.028404942 -0.32223037 -0.06285174 0.16747525 0.1001554 -0.17033777
-0.07387387 0.09639136 0.05372029 0.14519256 0.20738335 -0.030504933 -0.18388821 0.08434774
-0.0129508125 0.047929645 0.08732891 -0.012594792 -0.072126165 -0.08010267 0.16870342 -0.11708253
0.24698138 -0.017085565 -0.18518497 0.050607752 -0.1362922 0.06426462 0.09716842 0.010625639
0.14038043 -0.16969724 -0.12230913 -0.22818665 -0.0023547956 -0.0643905 0.14989367 -0.06804734
-0.12795687 0.1300118 0.07439095 -0.06519105 0.120592974 0.11330783 -0.14950821 0.27557826
-0.102853276 -0.07478555 0.09702856 -0.06901931 0.049741764 0.07069325 0.09038469 -0.038742803
0.3618451 0.15673687 0.11348605 0.30861232 -0.1539676 0.15283781 0.27602738 -0.08983051
0.0030821555 -0.0038246734 -0.1184068 -0.07348585 0.0389467 -0.06679107 0.0064159017 0.016550524
0.1887906 -0.167219 -0.19353034 0.20831323 0.09069349 0.018385807 -0.09443151 0.033514697
-0.16268657 0.14195308 0.07024363 0.069083355 0.07470133 0.2537251 -0.078695096 -0.1545362
0.11330224 0.0012401543 -0.013315908 0.114119165 -0.09413177 -0.08064889 -0.112126626 -0.116305076
-0.05333607 0.035774976 0.19638573 -0.13652827 -0.032969892 -0.028224967 -0.12634164 0.15898298

fc3.bias f4 [10]
00000000: 4852 2fbe caee 1abf 6aa5 1bbe 492d f43e
00000010: 7f80 ea3e c8e7 cabc 754e 933e 29f8 bbbe
00000020: cc43 973e 28bc 8bbe
-0.17121232 -0.60520613 -0.15199819 0.476908 0.4580116 -0.024768725 0.28770795 -0.3671277
0.29543912 -0.2729199
