first_model.pkl (torch_old, 629625 bytes, 8 tensors)

weight f4 [32, 3, 3, 3]
000000 01 12 d5 3c 82 f5 0f 3e d2 dd 23 3e a6 43 54 be
       0.026009561 0.14058498 0.16002586 -0.20728931
000010 c8 31 d4 bd 38 8c 12 be 00 5e 37 3e b6 a1 b8 3d
       -0.103610575 -0.14311302 0.17906952 0.09015219
000020 d0 d8 4c 3e 10 28 24 3e 77 a3 31 3d d2 f6 a1 bc
       0.20004582 0.16030908 0.043368783 -0.019771013
000030 e4 0e 0a be 4c 65 9d be 56 e1 8a be fa ea 5a 3e
       -0.13482243 -0.30741346 -0.27125043 0.21378699
000040 03 5d 17 3e ba 1e 11 3d e0 5d 62 3d 3f d9 2b be
       0.14781575 0.035429694 0.055265307 -0.16782092
000050 df fb cd 3d 66 57 7b be 6c 58 04 3b 90 4e 3f be
       0.10057806 -0.24545059 0.0020194305 -0.18682313
000060 54 ad 4e 3e 4d 64 50 3e 57 39 8a 3e 1d b0 d8 3d
       0.20183307 0.20350762 0.26996872 0.10580466
000070 53 1b 44 3e fa 5c b6 3d 5a 65 20 3e 1d 1a ca 3d
       0.19151048 0.089044526 0.15663663 0.09868262
000080 11 9c 1c be d6 cf 68 3d 04 66 5f be 1d 79 f3 3b
       -0.1529391 0.056838833 -0.2181626 0.0074302093
000090 82 f8 65 3e c4 1c 74 bd 76 dd 54 3e 0c 81 49 3e
       0.2245808 -0.059597746 0.20787606 0.19678134
0000a0 78 f5 19 be 3f e3 de 3d ba a2 a6 bc be 9d ad 3d
       -0.15035045 0.108831875 -0.020341266 0.084773526
0000b0 7b a9 43 3e ed c5 08 bc 4e b5 db 3d f8 96 2e 3e
       0.1910762 -0.00834797 0.107279405 0.17049778
0000c0 44 62 1a be ee 5b 26 bd 67 15 1f 3d af 6e 14 be
       -0.15076548 -0.040615015 0.03883877 -0.14495347
0000d0 9a cf a1 bd 5a 21 ff 3d c3 66 54 be 9d 9c 02 3e
       -0.07900925 0.12457533 -0.20742325 0.12755056
0000e0 63 6d 31 bd 09 a6 8d 3d 9e 27 2a 3d b4 45 55 3e
       -0.04331721 0.06916434 0.04154169 0.20827371
0000f0 7b ef ab 3e 97 7b 8f bd a2 01 07 be 51 24 3b be
       0.33581147 -0.07005995 -0.13184217 -0.18275572
000100 fa 49 09 be 53 d2 b5 3b 0b 49 d9 bb 49 cc 3c be
       -0.13407126 0.0055487542 -0.006631022 -0.18437304
000110 d2 a3 4a 3d 35 44 b0 3e c7 c7 31 be 50 82 85 be
       0.049472637 0.34427038 -0.17361365 -0.26075983
000120 fc 2e 46 3d fd 18 a0 3d 24 64 a3 bd 61 05 15 3e
       0.04838465 0.07817266 -0.07978085 0.14552833
000130 6f 2b 13 be 9f f2 cc 3d 69 3b 95 3e 59 19 a1 bd
       -0.14372037 0.10007214 0.2914689 -0.07866163
000140 63 3a 80 be f2 ed f9 bd 3c 11 5a be c0 83 7e be
       -0.25044546 -0.122035876 -0.21295637 -0.24854946
000150 63 cd 36 bd b8 7e f9 3e e4 c0 4a 3e 55 36 41 bd
       -0.044629466 0.4872949 0.19800144 -0.047170956
000160 e9 04 8f 3e 24 4d 82 3e bc d9 90 be 74 4a b5 3d
       0.27933434 0.2544948 -0.28291118 0.088520914
000170 28 8a 51 3c bc fc 41 be 5e 6e ca 3e aa c9 49 3d
       0.012789287 -0.18944067 0.39537328 0.049264587
000180 99 94 ba 3b 77 fb 25 3e a4 3a b7 3e ee c8 01 be
       0.0056939838 0.16209207 0.35786927 -0.12674305
000190 ef 34 17 3b d2 3f 72 be 68 02 01 be c0 17 af 3e
       0.0023072322 -0.23657158 -0.12598574 0.34197807
0001a0 e6 18 27 3e b6 06 30 be 1f c5 71 3e 69 de 77 3e
       0.16318092 -0.1719006 0.23610352 0.24205936
0001b0 a7 54 ff bb ed e5 d0 3d e6 30 99 3e 82 3e 98 bd
       -0.007792074 0.10200105 0.2992012 -0.074337974
0001c0 47 eb 14 bd 9a 6a a8 be 55 b5 81 be c7 c3 4a be
       -0.03635719 -0.3289383 -0.25333658 -0.19801246
0001d0 bf d6 78 be 88 7f 05 3e 41 76 22 3e 38 3b ae 3e
       -0.24300669 0.1303693 0.15865423 0.34029555
0001e0 b0 9c b0 bd 9b 24 e7 bd c8 c4 31 be e8 e8 dd bd
       -0.08623636 -0.11286279 -0.17360222 -0.10835439
0001f0 b2 c1 ba bd 71 81 a1 3d c6 ce 32 3e 51 4b 2c 3e
       -0.09118976 0.07886017 0.1746169 0.16825606
000200 ca fe 1d 3e 21 c4 09 3d 92 3d 82 be c6 96 35 be
       0.15429226 0.03363431 -0.254376 -0.17733297
000210 b1 9e ef 3c c4 df 8d bd 53 cd c6 bd 21 29 41 be
       0.029250475 -0.069274455 -0.09707131 -0.18863346
000220 6d 5b 59 bd 19 cb 4d 3d 1b 01 8e 3e 56 ff 52 be
       -0.053065706 0.050242517 0.27735218 -0.20605215
000230 8b 1d 88 3e ab ff 85 3d 1d 84 10 3e 2b e1 f1 bd
       0.2658504 0.065429054 0.14112897 -0.118105255
000240 46 92 0a be a4 ce 00 be e1 69 68 3d 78 57 46 bc
       -0.13532361 -0.12578827 0.0567416 -0.012105815
000250 24 d9 59 be ae 0b 96 3e 0a 04 93 3e 1d 4f 64 3e
       -0.21274239 0.29305786 0.2871402 0.22295804
000260 b1 8e a9 bd 90 c4 0e 3d 45 69 7b bc 22 2f b0 bd
       -0.08279169 0.034855425 -0.015344922 -0.0860274
000270 29 bb 06 3e 4c b0 36 be e6 75 6e 3e 47 ae 92 3e
       0.13157333 -0.1784069 0.23287162 0.28648588
000280 f5 01 f9 bd c9 73 92 3d 79 e6 d3 3b 73 00 de 3d
       -0.121585764 0.071509905 0.0064666835 0.108399294
000290 eb 3a 43 3e 73 5b 91 3d e3 77 33 be a6 cf 47 be
       0.19065444 0.07097521 -0.17526202 -0.19512805
0002a0 d2 de 18 be 45 15 eb bd 2f a6 9d 3c 5b 9e 4a bd
       -0.14928749 -0.11478666 0.019244282 -0.049467426
0002b0 28 81 90 3c 9d 44 3b 3e 60 e5 73 3e 81 4c 0d be
       0.017639711 0.18287893 0.23817968 -0.13798715
0002c0 ab 37 f7 bd bb 3a f0 bc 8d 42 f1 bc f5 2b 08 3e
       -0.12071165 -0.02932488 -0.02945068 0.13298018
0002d0 5a 6d 37 ba e0 c6 1f be 63 f2 98 3e 55 2c b1 3e
       -0.00069971906 -0.15603209 0.29872426 0.34604135
0002e0 6f 84 4f be 6a 72 ab bd f0 56 58 be 15 2e 31 3e
       -0.20265363 -0.08371432 -0.21126914 0.17302735
0002f0 9b 58 de 3d 6c da 27 3e 0f 70 e7 3b 42 e3 83 bd
       0.10856744 0.16391915 0.007062919 -0.0643983
000300 a9 89 17 be d1 be 86 3e 93 52 f4 bd 0b db c3 bc
       -0.14798607 0.26317456 -0.11929812 -0.023908159
000310 c8 5e 29 be 40 97 88 bd 91 ff 28 bd a5 7d 6d 3d
       -0.16540062 -0.06669474 -0.041259352 0.057981152
000320 b2 4e 81 bd 15 a6 0f 3e b1 1f e1 3d cd 11 0e 3e
       -0.06313838 0.14028199 0.10992373 0.13873978
000330 5d 0e 5e bd ca 03 42 be 4f 9e c6 3c 31 6e 81 bd
       -0.054212917 -0.18946758 0.02424541 -0.063198455
000340 6f e6 fa bc 92 61 34 3e 9e 66 12 bd d9 25 26 3e
       -0.030627457 0.17615345 -0.035742395 0.16225375
000350 18 04 40 bd da 31 ce bd b6 21 b6 bd 33 35 27 be
       -0.046878904 -0.10068102 -0.088931486 -0.16328888
000360 13 dc c6 bd 0b be ef 3d 30 a8 4f 3b dd 40 cf 3d
       -0.097099446 0.1170617 0.003168594 0.101197936
000370 e4 45 b8 3d 2b f3 58 3d fd c8 0a bd 4b 11 1b bd
       0.089977056 0.052966278 -0.033883084 -0.03785829
000380 ec c4 7d bd 61 37 a8 3d 51 27 92 bd e2 1f 37 be
       -0.061955377 0.08213688 -0.07136405 -0.17883256
000390 31 f8 31 3e 98 8b ca bd da b8 14 3e 47 dd 0a 3e
       0.17379834 -0.09889907 0.1452364 0.13560973
0003a0 62 a2 4c 3e 65 5d 76 3d c5 19 a5 3d 19 fb 5b bd
       0.19983819 0.06014766 0.08061556 -0.053706262
0003b0 1c 1c c2 3d b6 7d 32 bd 80 ae 9c bd 8c c8 10 be
       0.09478018 -0.04357692 -0.07650471 -0.14139003
0003c0 65 fc 19 3e cb cc e5 3c 5b ef d7 bd c6 33 3e bd
       0.15037687 0.028051754 -0.105437 -0.046436094
0003d0 8a 07 ed bc 2a 14 47 bd 6f 1a 46 3e de 16 84 3c
       -0.028934259 -0.048603214 0.19346021 0.016124185
0003e0 c0 68 e5 3d 22 bb 0d 3e 74 66 01 bd 8c 87 0a be
       0.1120162 0.13840917 -0.031591848 -0.1352827
0003f0 d4 84 07 3e 76 71 ba 3d cd e4 8b 3d 6c dc 0c bd
       0.13234264 0.09103672 0.0683075 -0.0343899

bias f4 [32]
000000 fe 5a ef bd 08 9b ef 3c 9c 63 dd bc 70 fd 8f 3e
       -0.11687277 0.02924873 -0.027025037 0.28123045
000010 8d d1 e6 bd ad c6 43 3e 80 0d 47 3e 34 cc e4 bd
       -0.112704374 0.19118758 0.19438744 -0.11171761
000020 bc 64 e5 bd 17 95 2d bd 0a 09 18 be 7c 04 2d bb
       -0.11200854 -0.04237851 -0.14847198 -0.0026400378
000030 60 8b 07 bc 16 ca 75 be d2 7c 13 3e b9 1a 07 be
       -0.008272976 -0.24002871 0.14403084 -0.13193788
000040 4c 8b 7b 3d 24 40 0d be 2a b0 ac 3d f4 d8 31 be
       0.06141214 -0.13793999 0.08432038 -0.17367917
000050 b3 32 60 be c3 f5 d8 3d a4 57 38 be 02 64 57 bb
       -0.2189434 0.1059375 -0.18002182 -0.0032866006
000060 95 a6 bf bd e9 64 80 bd 1f 7d 17 3e 8d 73 e2 bd
       -0.09357945 -0.06269247 0.14793824 -0.11057196
000070 08 4d 6d be 28 b0 1a be 06 05 2e 3e b4 dc e2 3d
       -0.23173916 -0.15106261 0.16994104 0.11077252

weight f4 [64, 32, 3, 3]
000000 10 60 14 3d 78 30 55 3c d2 8d 8e 3c 69 c4 37 3d
       0.036224425 0.013012044 0.01740161 0.044865046
000010 00 14 ee bc 3f 1c b2 3b 2d cf ee 3c 26 b7 11 bc
       -0.029062271 0.005435496 0.029151523 -0.008893764
000020 14 f0 af 3b 55 3b 30 bc 49 d1 0d 3d 97 1a ca 3c
       0.0053691957 -0.010756333 0.034623418 0.024670882
000030 10 5c 88 3b e6 8a 0e 3d e8 ec 05 bd 8b 2e 9a 3c
       0.0041613653 0.034800433 -0.032696635 0.018821022
000040 95 77 ab 3c 7d e6 d8 3c ca 18 94 bd 8f 7b 59 bd
       0.020931045 0.026477093 -0.07231291 -0.05309635
000050 43 c8 6f bd b9 92 45 bd 28 00 28 bd 77 a0 86 3c
       -0.058540594 -0.04823563 -0.041015774 0.016433937
000060 7a ac 4a bd 38 34 69 bd e0 c0 35 bd 8e e5 1f bc
       -0.049480893 -0.056934565 -0.044373393 -0.00975932
000070 4b 0d 2d 3d f0 d5 f7 3c 1a 02 98 bd f0 e6 37 bd
       0.042249005 0.03025338 -0.07422276 -0.044897974
000080 79 28 5b bd 3f 48 52 bd 9c 09 03 bd 4a 6d 87 bc
       -0.053505395 -0.05133843 -0.031991586 -0.016531605
000090 03 a6 12 bd 17 62 a0 bd f6 5e cf 3d a1 6e 76 bd
       -0.035802852 -0.07831209 0.10125534 -0.060164098
0000a0 b6 d7 8e bc 0f 00 92 3c d0 aa 97 3d b9 91 91 3d
       -0.017436843 0.017822294 0.07405627 0.071078725
0000b0 ee 51 18 3d 61 1e 4a 3b 9e 9f a6 bd 8f a0 48 bd
       0.03718751 0.003084086 -0.08135913 -0.048981246
0000c0 20 a6 19 bd 34 6f 0b 3d 5c 0e 9b 3d 14 e1 36 bc
       -0.037511945 0.0340416 0.07571098 -0.011162061
0000d0 e8 db 69 3b 8a b5 8d bc 1e cd 46 bd 6f 8b 2d bd
       0.0035684053 -0.017298479 -0.04853546 -0.042369302
0000e0 d4 79 a5 3d 78 6e dd bc 0e fd 1c 3c a0 be 8a 3d
       0.080798775 -0.027030215 0.009581817 0.0677464
0000f0 7e 33 3c bd 76 1f c7 3c 1a 76 d6 3b b0 da 2e bd
       -0.045947544 0.024306994 0.0065448405 -0.042689025
000100 4c e5 a0 bc df d1 63 bc 79 6b b2 bc e8 cd ef 3a
       -0.019640587 -0.013905018 -0.021779763 0.0018295618
000110 6d c0 cc 3c d3 63 81 3c 54 ef 6d bb 12 17 a4 bc
       0.0249941 0.01579467 -0.003630598 -0.020030532
000120 49 f0 e8 3c b0 0f ea ba 00 14 ee bc 90 3c 11 3c
       0.02843489 -0.0017857458 -0.029062271 0.008864537
000130 2d 1f 54 3d f2 f4 5a bd 69 a5 fe bc 3a 56 e6 bc
       0.051787544 -0.053456254 -0.031084733 -0.028117288
000140 4d 41 75 3c 43 ba 4b 3d 45 09 40 3c e2 bb 1d bc
       0.014969182 0.04973818 0.01172096 -0.009627314
000150 4b f4 19 3d aa 83 07 3d 13 ff 07 bd c5 a9 5e bd
       0.03758649 0.03308455 -0.033202242 -0.054361124
000160 2a 63 6e bd 49 02 74 bd bd 35 b3 3a bb 63 9c 3c
       -0.05820004 -0.05957249 0.0013672631 0.019090524
000170 e4 ea df bc 08 6c 0d bd 2a d1 09 bc 6e f7 54 3d
       -0.027333684 -0.034526855 -0.008411685 0.05199378
000180 59 46 c1 bc a7 f1 72 bb 16 c1 b8 bb 24 84 2a bd
       -0.023593115 -0.0037070306 -0.005638252 -0.041629925
000190 2c 4f d4 3c 7f 6a 56 bb 6f e9 21 bd 64 79 40 bd
       0.025916658 -0.0032717285 -0.03952926 -0.046990767
0001a0 4c 35 1c 3d 2f a1 a2 3b e6 40 60 bd fe 20 0c 3d
       0.038136765 0.0049630622 -0.054749392 0.03421115
0001b0 cd 48 d2 3c f1 d1 d9 bc e7 d9 34 3d d4 ef 29 3d
       0.02566948 -0.026589366 0.04415312 0.041488484
0001c0 0c 13 7d 3d 94 4d 15 3d c3 41 0d bc 4b 92 17 3d
       0.061785743 0.036450937 -0.008621636 0.03700475
0001d0 dd d8 04 bd 13 17 17 3d 09 21 55 3d af d1 50 3d
       -0.03243338 0.03688724 0.052033458 0.05098122
0001e0 10 de 7d bd f7 f7 4b 3d 1c d6 f3 3c 82 50 ac bc
       -0.061979353 0.049797025 0.029765181 -0.021034483
0001f0 9e 8a 79 bc b4 ac 29 3c c4 cc 1d bd 87 7f 98 3b
       -0.015230803 0.010356117 -0.038525358 0.0046538743
000200 1f 71 9e bc 07 91 d8 3b 95 27 05 bd 21 c0 1a 3d
       -0.01934105 0.0066090855 -0.03250845 0.037780885
000210 27 6f 22 3d c5 ed 30 3d 0b 84 83 bd 81 1c e7 bc
       0.039656784 0.043195505 -0.064216696 -0.028211834
000220 2b a4 be bc 7a 53 4a bc bd 98 0e 3d e9 ae 67 3c
       -0.02327164 -0.012349004 0.03481363 0.014140823
000230 1f b1 7f bd 40 91 13 bd 01 f5 af 3b 3a 02 1a bb
       -0.062424775 -0.036027193 0.005369783 -0.0023499862
000240 ed c0 d9 3b 3c 16 04 bc 87 96 8e bc ef 16 e3 3b
       0.006645313 -0.008061942 -0.017405761 0.006930224
000250 87 b4 42 bd 3e f1 2a bd 96 bf 3f 3b 74 a0 6f bb
       -0.047535446 -0.041733973 0.0029258481 -0.0036564143
000260 40 12 e2 bc 1f ea 54 3d 32 7e 8d bc f4 87 7e bd
       -0.027596593 0.051981088 -0.017272089 -0.062141374
000270 3d f5 64 bd 34 08 ea 3a 66 32 4b 3d 81 60 ec 3c
       -0.05589794 0.0017855228 0.04960861 0.02885461
000280 34 67 2d bd 64 e2 00 3d e3 bd 4c bc 22 b6 97 3c
       -0.04233475 0.031465903 -0.012496444 0.018519465
000290 79 4b 52 3d aa 0d e8 3c 84 6c 7b bc 83 47 ab bb
       0.051341508 0.028326828 -0.015345696 -0.0052270307
0002a0 8d 36 f9 bc b6 4d 06 bd 54 11 6a bd 9e db 29 3d
       -0.03042152 -0.032788955 -0.05714543 0.04146921
0002b0 b0 cf 09 bd 8b cc 6f bc 82 de 0b 3c 95 0f 8a bc
       -0.03364533 -0.014636169 0.008536937 -0.016853133
0002c0 d5 b1 40 bb 72 9e d0 3c 3c db 87 bd 13 b0 97 3c
       -0.002940287 0.025466178 -0.066336125 0.018516576
0002d0 22 5c 28 bd 2f 9a 6b bd 20 23 ac 3c 92 73 48 3d
       -0.04110349 -0.057520088 0.021012843 0.04893834
0002e0 dd 5e 2d 3d a0 fa 96 bc 43 50 65 3d 01 c5 2b bd
       0.042326797 -0.018430054 0.055984747 -0.041935924
0002f0 59 09 44 bd fa 3f 68 3d 17 90 41 3d f3 35 7d 3d
       -0.047860477 0.056701638 0.047256555 0.061819028
000300 4f 78 9e bc 1a 25 87 3c 53 4b 46 bd df 12 c7 bc
       -0.019344477 0.016497184 -0.04841168 -0.02430099
000310 9d d2 91 bd 03 cb 77 bd b8 8e 52 3d 7f 95 65 3c
       -0.071202494 -0.06049634 0.05140564 0.014012693
000320 46 b2 d2 3d 1b f9 d5 bd 22 d8 ae bc 0c 02 74 3d
       0.10287909 -0.10447904 -0.021343295 0.059572265
000330 5e 32 52 bc df 32 3d bd 36 22 c4 3c 63 0e 6c bd
       -0.012829391 -0.046191093 0.023942094 -0.057630908
000340 3e 84 12 bc 47 d5 e7 3a e5 42 26 bd 4f 23 e3 3c
       -0.008942662 0.0017687463 -0.04059114 0.027726797
000350 ae 41 63 bd 97 7d 21 bd 11 22 b4 b9 c5 8c 19 bd
       -0.05548256 -0.039426412 -0.00034357657 -0.037487764
000360 2d 3d 35 3d 01 a4 c6 bc 88 6e 94 bc 2d e9 5a bd
       0.044247795 -0.024248125 -0.018119112 -0.05344503
000370 54 1d 50 bd 6c 5b 0b 3d 8c 8a 3d 3d 36 fd ab bb
       -0.05080922 0.034022734 0.046274707 -0.005248691
000380 8a 42 fc 3b ba e8 33 bc 11 06 a6 3b b8 b2 78 3d
       0.0076983618 -0.010980779 0.005066641 0.060717314
000390 02 3e 50 3c 5c 18 8f bd 44 ea 0d bd c5 c2 83 3c
       0.012710096 -0.06987068 -0.03464724 0.016084084
0003a0 c7 f1 bc bc 84 54 68 3c cf 66 83 bd 00 4c 3f bd
       -0.023064507 0.014180306 -0.064160936 -0.04670334
0003b0 09 c4 a6 bc 13 3f 1f 3d 77 0e 23 bd 26 bc b3 3c
       -0.020357149 0.03887851 -0.039808717 0.021940302
0003c0 dc f0 5e bc f9 e8 9d bd 30 cb d7 bc 60 5a 17 3d
       -0.01360723 -0.07710452 -0.026342005 0.036951423
0003d0 2a 92 67 3d 1f 1e 48 bd c4 9b f2 3c 8b bc 51 bd
       0.056535877 -0.04885685 0.02961529 -0.0512052
0003e0 b2 92 fc 3c 99 a2 37 bd ac 60 90 3c 0c e3 03 3c
       0.030831669 -0.0448328 0.017624222 0.008049738
0003f0 93 97 a5 bb 10 c8 1b 3d ed d7 8c 3c 4e a4 90 3c
       -0.0050534694 0.03803259 0.017192805 0.017656472

bias f4 [64]
000000 f3 04 4b 3d 6d f7 86 bc fe e2 14 3c e7 aa 4c bd
       0.049565267 -0.016475404 0.009087322 -0.049967673
000010 b2 2d 0f bd 61 d4 2e bd 0a 10 9a 3c d4 5f 24 3d
       -0.034955688 -0.04268301 0.018806476 0.04013045
000020 2a 5e bd 3d 4f 62 30 bd 11 97 86 3b 50 41 c7 bb
       0.09246476 -0.043062504 0.004107364 -0.006080784
000030 2d a6 8f bc 81 29 6f 3d 75 3a e2 3d b8 a3 13 bd
       -0.017535293 0.05838919 0.11046306 -0.036044806
000040 be a6 40 bd 14 39 e0 3d 10 80 ec bb 1b ce a6 3c
       -0.047034018 0.10948387 -0.0072174147 0.02036195
000050 06 17 88 3d 0e eb a6 3b 59 b9 c8 3c 97 3d d0 bc
       0.06645016 0.0050939387 0.024502443 -0.025419993
000060 2b e0 c5 bd 12 ca 51 bd 13 a1 c3 3c d2 51 93 bb
       -0.09661897 -0.0512181 0.023880517 -0.0044958377
000070 53 66 77 bd d5 30 90 3c 2d 96 72 bc 06 06 b1 bc
       -0.06040032 0.01760141 -0.0148063125 -0.021609318
000080 c3 7b 54 3d 6c 94 ed 3b 4d 6c 7c 3d 34 53 63 bd
       0.05187584 0.0072503593 0.06162672 -0.05549927
000090 75 5b 58 3d ee c8 a0 3d be e1 16 bd e5 13 55 bd
       0.052821595 0.07850824 -0.03683638 -0.052020926
0000a0 91 ad 0f bd f7 46 f1 bc eb 8d 63 bd 4a 94 7c bb
       -0.035077635 -0.029452784 -0.055555265 -0.0038540536
0000b0 22 58 a6 ba 0a 81 0a 3d d2 77 0c 3e b5 00 18 3d
       -0.001269106 0.033814467 0.13717583 0.03711005
0000c0 62 ea 3f 3d a8 ec 06 3d 60 96 9a 3d bf 05 ea bb
       0.046854384 0.032940537 0.07548213 -0.0071417983
0000d0 85 d2 07 3d 2f c4 aa bd 0b 7a 70 bc c4 d0 e8 3d
       0.03315975 -0.083382 -0.014677535 0.11367944
0000e0 3b 4d 98 3c 0e 0f c6 bc be 8e ea bc a2 94 50 3d
       0.018591514 -0.0241771 -0.028632518 0.050922997
0000f0 d3 54 1e 3d 6a e5 32 bc a5 69 1d 3e 0e 72 56 bd
       0.038655113 -0.010918954 0.15372331 -0.052354865

weight f4 [128, 1024]
000000 5a b9 8b 3c b2 b8 17 3d 29 05 ee 3a 7c bf 4f 3c
       0.017056156 0.037041374 0.0018159497 0.012679931
000010 21 b9 37 bc 38 99 47 3c 95 c3 2c 3a 07 b0 70 bc
       -0.011213572 0.012182526 0.0006590423 -0.014690406
000020 b6 18 86 3b b6 a6 3d bc 8d f8 53 3b 60 36 11 3d
       0.0040923012 -0.0115753915 0.0032344193 0.035452247
000030 8f c9 aa 3c 51 ca 95 3c 67 f8 a0 3b 99 3a b8 3c
       0.020848064 0.018284949 0.0049124244 0.022488879
000040 9f 4d 4a bc c4 1b a2 bb bc d0 39 bc e4 ba e9 bc
       -0.012347608 -0.0049471576 -0.01134127 -0.0285315
000050 31 7a 8f 3d 58 e8 6f bb 02 66 96 bb d0 d7 41 bc
       0.07005728 -0.0036606994 -0.004589797 -0.011831239
000060 01 8a 9a bc 22 91 27 bd f7 f5 0b 3c 6a 4b 00 bd
       -0.018864634 -0.040909894 0.008542529 -0.03132192
000070 4e bb 4b bc a7 6e 8d 3b 60 0a 15 3c 7e e2 2e 3d
       -0.012434794 0.0043161693 0.009096712 0.04269647
000080 52 d3 56 bc d0 fe 48 3c b4 fc ae 3c e7 9d 02 3d
       -0.013111906 0.012267783 0.021360733 0.03188887
000090 9d 20 1d bc 29 c6 34 bc b8 1a 8a bb 31 51 f6 bc
       -0.009590295 -0.011033573 -0.004214611 -0.030068012
0000a0 c5 6b 35 3c 34 69 04 3d 4e ab 94 bb 73 0f b2 b8
       0.011073058 0.032326892 -0.0045370227 -8.490579e-05
0000b0 d3 80 60 3c b4 dc 31 3d 12 ab 90 bc 78 56 2a 3c
       0.013702589 0.04342337 -0.017659698 0.010396592
0000c0 e2 51 31 bd eb 85 bc bb 8c e2 ce bc 37 a0 82 3c
       -0.04329098 -0.005753269 -0.02525451 0.015945537
0000d0 ed 76 7a bc ea 7d d2 3b c9 e1 ed bc bf 55 9b 3c
       -0.015287143 0.0064237015 -0.029038327 0.018961785
0000e0 7c 3f ef bc 29 ea 29 3b 54 3b f9 bc a5 c7 32 bb
       -0.029205076 0.0025926924 -0.030423798 -0.0027279642
0000f0 05 36 8f 3c 8e 7f 14 ba 85 3e dc 3c 96 3b f8 3c
       0.017481813 -0.0005664759 0.02688528 0.03030185
000100 e5 12 cd bb 77 53 a7 3c a8 b7 1c bd 3a 34 60 bc
       -0.006258356 0.020425541 -0.038261086 -0.013684327
000110 f5 7e 49 bb 65 12 ab 3b ab 97 fe 3b 7d 44 c3 ba
       -0.0030745838 0.0052206987 0.007769545 -0.001489773
000120 d2 ed b7 bb 3b 6c e9 bc a8 6b 89 3c 8d e1 ad 3c
       -0.005613067 -0.028493991 0.016774967 0.021225715
000130 4c a2 b1 3c a1 f4 67 bc b4 b2 95 3c 8e c5 aa bc
       0.021683834 -0.014157445 0.018273689 -0.020846155
000140 57 cd 7d 3c 9a ec e6 ba fd 05 84 bc 52 16 8d bb
       0.015490851 -0.001761812 -0.016116137 -0.0043056393
000150 5b a6 ab bc a7 d2 6a 3c e3 e4 a9 bc ca 43 bb bb
       -0.020953348 0.01433245 -0.020739025 -0.005714868
000160 88 82 b1 3c 09 b8 e5 3c 01 29 0d 3d c0 df 83 bb
       0.021668687 0.028041856 0.034462932 -0.004024476
000170 86 f7 09 3d c1 fc 26 3c cf 86 54 3c e1 d6 22 bc
       0.033683322 0.010192097 0.012971594 -0.009938926
000180 e7 f6 6c b9 d7 3e 05 bd 7f 43 12 bc 4f 1a bd 3b
       -0.00022598692 -0.032530632 -0.008927225 0.0057709585
000190 0e ce 99 3c ed ff c8 bb d0 58 2f bb 59 0c c9 3c
       0.018775012 -0.0061340244 -0.0026755817 0.02454202
0001a0 27 47 bc bc 1e 2a 06 3c 3c b4 06 bc dd 12 1a 3c
       -0.022983147 0.008188752 -0.008221682 0.009403911
0001b0 a1 1d af 3c b5 71 45 3b 55 d3 cc 3d 0d 19 22 3c
       0.021376433 0.003012759 0.10001246 0.009893668
0001c0 93 fc ab 3c 07 72 6c 3d f5 38 e6 ba 08 de 4c bb
       0.02099446 0.057725932 -0.0017564582 -0.003126027
0001d0 49 7f a8 3b 67 76 cb 3c 84 98 59 bc 50 36 9d bc
       0.0051421267 0.024836732 -0.013280991 -0.019190937
0001e0 0f 57 5a bc 16 9b ea 3c a8 0a 92 3b c0 58 6f 3b
       -0.01332642 0.028638404 0.0044568367 0.0036521405
0001f0 93 ef 8e bc 9b a2 24 bd 2b 8d 8f bb f8 f5 ac 3c
       -0.017448222 -0.040194135 -0.004380842 0.02111338
000200 32 97 7c 3c 61 79 35 bb d0 d3 ea 3c eb 3f 6e 3c
       0.015416907 -0.0027690756 0.028665453 0.014541606
000210 33 6c 40 3c bf 17 ad 3c 95 17 81 3c 6a 32 a3 bc
       0.011744547 0.021129487 0.015758315 -0.0199215
000220 a8 f2 e5 3c 44 af 8e bc ee 24 b9 3c 0e 60 8c bc
       0.02806981 -0.017417558 0.022600617 -0.017135646
000230 05 61 b4 3c 18 95 e2 bc 9e b0 b9 bc 55 9c 62 bc
       0.022018919 -0.027658984 -0.022667225 -0.013831218
000240 f2 ef 33 3d e8 88 00 bd ad 07 39 3c ea ec bb 3c
       0.04393 -0.031380564 0.011293334 0.022940118
000250 05 47 e9 3b e0 6f 8a bc d1 5a e1 bc dc 1e ca 3c
       0.007119062 -0.01689905 -0.027509125 0.024672918
000260 14 a5 43 bc 48 78 ae bb 70 7b 1d 3c ed 89 bf bc
       -0.011941213 -0.0053243972 0.009611949 -0.023381198
000270 64 14 b0 3c a7 ea 74 bc 43 c0 f3 bc 42 7a b4 3c
       0.021494098 -0.014948524 -0.029754763 0.022030953
000280 b9 2c 07 3d 2b 19 34 3d 87 0e 2d bb 12 82 dd bc
       0.033001635 0.043969315 -0.0026406364 -0.027039561
000290 e7 53 8c 3c ea c5 65 bc 1b de 84 bb f6 0d 29 3b
       0.017129852 -0.014024237 -0.0040547973 0.0025795675
0002a0 fe a1 44 bd 88 72 be 39 22 59 ab 3c ca a4 0e 3d
       -0.04800605 0.00036324956 0.020916525 0.034825124
0002b0 60 6f c0 bc 0d b5 a8 3c b8 8d 85 3b 3a d1 98 3c
       -0.023490608 0.020594144 0.004075732 0.018654454
0002c0 39 14 28 3d bd d9 21 3d 72 c8 17 3c 39 c7 15 bd
       0.04103491 0.039514292 0.0092640985 -0.036566947
0002d0 1a 35 ed bb c9 c2 c0 3c 6b 0a 16 bc ef 21 95 3c
       -0.007238996 0.02353038 -0.009157757 0.018204657
0002e0 c2 a1 eb bc d9 01 a9 3c 42 44 77 bb e0 d9 3b bc
       -0.028763656 0.020630764 -0.0037729894 -0.01146552
0002f0 5d 21 d4 bc 44 3a eb 3c 62 34 8d bc 50 b8 ea 3c
       -0.025894815 0.028714307 -0.017236892 0.02865234
000300 28 22 f4 bc bb 25 31 3d e1 3b 15 bd c4 c6 c6 3c
       -0.029801443 0.043248873 -0.036434058 0.0242647
000310 1b 5d c4 bb b5 13 11 3c 10 1f af 3b b3 02 a3 3b
       -0.0059925443 0.008854796 0.005344279 0.004974687
000320 d1 cb 69 3c e4 bd 8e bc 5e ef 0d bc 59 71 36 bb
       0.014269785 -0.017424531 -0.008663027 -0.0027838557
000330 60 54 82 3d 63 f1 c3 bc 52 14 07 3c 78 bd 89 3c
       0.063637495 -0.023918813 0.008244591 0.016813979
000340 d2 63 8f 3c 1f 30 14 3c 26 84 4c 3c 8f df a3 3c
       0.017503653 0.009044676 0.0124826785 0.020004062
000350 4d 9d 28 3c 19 71 2b bc 1f ee b7 39 74 2f 2b bd
       0.01029141 -0.010463976 0.00035081894 -0.0417933
000360 5d 48 4d bb ed 78 e0 bc 6f 4b 82 bc 7d 6d 09 3d
       -0.003132365 -0.027401412 -0.01590511 0.03355168
000370 e4 bf 92 bc 27 87 48 bc 7c 00 63 3d 4f 2b d3 bb
       -0.017913766 -0.012239254 0.055420384 -0.006444372
000380 ad 95 95 bc e1 31 76 bc a5 41 15 3c 3f 47 ca 3b
       -0.018259848 -0.0150265405 0.009109889 0.006173044
000390 d4 23 31 3b ae cc e1 3c d8 6d cb bc 4d 1d 0d bc
       0.0027029412 0.02756342 -0.024832651 -0.008612943
0003a0 3d f7 76 bb 5f 0b 02 3d b1 5f ef 3b 9c 40 14 3c
       -0.0037683987 0.031749126 0.0073051085 0.009048607
0003b0 5c 03 47 3c 77 e9 83 bc 45 78 62 3c a6 a8 c0 3c
       0.012146797 -0.016102536 0.01382262 0.023517918
0003c0 52 2b e1 bc 7e 57 cb 3c ee 4c 35 bd cc f4 0d 3c
       -0.027486477 0.024821993 -0.04426282 0.008664321
0003d0 cc 7b 1e 3d d3 3d 4a 3a 37 07 9b 3c 1b 23 03 3d
       0.03869228 0.0007714901 0.018924339 0.0320159
0003e0 97 e8 06 bd f6 78 51 bc 8b 18 2c 3d 82 58 42 3b
       -0.03293666 -0.012785187 0.042015593 0.0029654806
0003f0 12 62 e9 3c fd 11 4a 3d ff 6f 87 bd 9b b3 2c 3c
       0.028489146 0.04933356 -0.066131584 0.010540868

bias f4 [128]
000000 37 fc c7 3c e4 9f c3 3c 96 34 e5 3c 0c c5 36 3e
       0.024412258 0.023879953 0.027979176 0.17848605
000010 f3 96 2c ba 0b 4d 73 3d 2f c8 64 3d bb 51 2c bc
       -0.00065837725 0.059399646 0.055854972 -0.010517533
000020 c4 4a db 3d 0a 42 4e 3e f4 60 00 3e 19 09 c6 3b
       0.1070762 0.2014238 0.12536985 0.006043565
000030 43 1e 87 3a d8 82 19 3d 7a ee 4c 3d 23 c5 9e 3c
       0.0010308701 0.037478298 0.050032116 0.019381111
000040 1a c8 5e 3d e0 c1 ec 3d 79 1b 91 bb 6c 8b c4 3d
       0.05439005 0.11560416 -0.004428324 0.09596905
000050 b7 50 41 ba f2 05 65 3d 62 5f 4c 3c 33 75 71 3d
       -0.0007374393 0.055913873 0.012473913 0.05894966
000060 01 b6 a5 3d ab a5 83 3d 64 5f b0 3d 61 7e fb bc
       0.08091355 0.06428083 0.08611944 -0.03069991
000070 c1 ba 3b 3d 2a c0 98 3d 4b 9a 05 3e d8 0c a3 3d
       0.0458324 0.074585274 0.1304714 0.07961434
000080 db 45 08 3b 1c b6 c8 3d a4 5b b9 3c 12 91 e9 3c
       0.002079359 0.098003596 0.022626705 0.028511558
000090 e9 57 50 3d 36 7f 8f 3b c7 c9 93 3d ca db 4b 3d
       0.050865088 0.0043791784 0.0721622 0.049770154
0000a0 25 95 90 bc 8d e4 53 3c 0a 48 fc 3d fa cf c3 bc
       -0.017649243 0.012932909 0.12318428 -0.023902882
0000b0 78 94 02 3d 51 e5 4f bc 49 1b 28 3c ee 01 fc 3d
       0.031879872 -0.012688951 0.010260412 0.123050556
0000c0 0e 47 2c bd 5f de 2f 3e ff 87 be 3c 73 1f 72 3b
       -0.04205995 0.17174672 0.023258207 0.0036945015
0000d0 bf fd 53 bc 38 22 00 bc eb 70 a0 3b a0 45 45 bc
       -0.012938916 -0.007820658 0.0048962734 -0.012040526
0000e0 8d f2 c5 bb 13 ae 99 bc d5 76 11 3d 45 93 10 bc
       -0.006040877 -0.018759763 0.035513718 -0.008824174
0000f0 57 e3 00 3d 4e 6e 37 3d 2b 9e af bc b2 87 27 3d
       0.03146681 0.04478293 -0.021437725 0.040900894
000100 9b 1a ee bc 49 20 87 3c 02 4a ec 3d b9 ca 35 3d
       -0.02906542 0.016494887 0.11537553 0.044382785
000110 c8 c9 db 3c a5 46 97 38 75 c3 51 bb 87 84 4d bb
       0.026829615 7.2134e-05 -0.003200737 -0.003135951
000120 4b db 14 3d 66 ee b8 bb 3c ab 14 3d a0 76 53 ba
       0.036341947 -0.0056436537 0.036296114 -0.0008066688
000130 9d a4 f6 bc 01 c0 69 ba 84 e4 47 3d ca 52 3f 3b
       -0.03010779 -0.00089168554 0.048801914 0.0029193633
000140 fc aa 64 bc 8c 7d df 3d ea f9 28 3b 0b 71 0d 3d
       -0.0139567815 0.10912618 0.0025783726 0.034531634
000150 09 a4 d6 3b be a9 f1 bc db c7 f4 3c a4 36 91 3d
       0.0065503162 -0.029499885 0.029880455 0.070905
000160 0f 20 08 3c 72 ad e2 3c ea ed 4f bc 5c da ba bb
       0.008308425 0.027670596 -0.0126910005 -0.0057023
000170 b1 61 6e 3d 62 8c 85 3d 7c 91 8e 3c e4 25 4b bb
       0.058198635 0.065209165 0.017403357 -0.0030997926
000180 dd 40 ea bb 85 b0 82 3d 94 b9 48 3d d6 4a cd 3c
       -0.0071488456 0.06381325 0.049005106 0.025060099
000190 a2 7b 64 3d 7b af 0b 3c f9 75 63 bc 63 d1 82 3a
       0.055781968 0.0085257245 -0.013883107 0.0009980615
0001a0 dd e2 85 3c 94 e5 79 3a 89 31 f0 bc 99 7b b1 3d
       0.016343528 0.0009532806 -0.029320495 0.086661525
0001b0 3f 97 0f 3c ab 50 15 bc ed 78 78 3d 1a 88 a8 3b
       0.008764087 -0.009113471 0.0606622 0.0051431777
0001c0 3b 50 bb 3b 75 c4 8a bb cc 80 d8 3d 40 d2 bc bc
       0.0057163513 -0.0042348453 0.10571441 -0.023049474
0001d0 a0 ba e5 3c 2b 41 4a 3c 60 91 12 bc a0 b4 01 3d
       0.028043091 0.012344639 -0.008945793 0.031666398
0001e0 c6 cd f2 bc 76 a3 13 bd 75 4a 93 3d c7 ef e2 bb
       -0.029639136 -0.03604456 0.07191936 -0.0069255563
0001f0 e6 32 06 bd 07 93 48 3b 17 a6 19 bc c7 83 f6 bc
       -0.032763384 0.0030605213 -0.009377978 -0.030092133

weight f4 [12, 128]
000000 3e d3 8b bd 53 7b a9 bc 54 a7 81 3d a1 ba a5 3e
       -0.068274006 -0.020688688 0.063307434 0.3236895
000010 0f 15 bc 3c 2f ec ca 3e 6d 62 4f be a7 4b dd bd
       0.02295926 0.3963332 -0.2025239 -0.10805445
000020 5e 18 07 3e 7a 22 bb 3e c2 61 3d bb 3f 8e a9 3b
       0.13192889 0.3654974 -0.002889738 0.0051744278
000030 2c 67 ad bc 6f d3 8a bd ea 0d 0c 3e b0 89 02 3d
       -0.02116736 -0.06778609 0.13677183 0.03186959
000040 ee 78 20 3e a9 bc cc 3b 2d 0f 7d bb ff 2e 10 3f
       0.15671131 0.006248076 -0.0038613782 0.5632171
000050 5c 8f d2 3c 39 d3 d0 3e 41 01 fc 3d 4c ca 15 3e
       0.025703125 0.4078615 0.12304927 0.14627951
000060 ff e4 9d bd ca a1 d7 3e 59 06 a3 3e 2b 04 68 bd
       -0.07709693 0.42115623 0.3184078 -0.0566446
000070 98 b0 46 3d a9 77 a6 3e 69 c5 90 3e dc 6d 5f 3e
       0.048508257 0.32513168 0.28275612 0.21819252
000080 c1 fc ac bd 9f 56 c0 3e 27 37 7d be 90 0c d7 bd
       -0.084466465 0.37566087 -0.2472807 -0.10500443
000090 af 16 8f bd 3d f9 56 3b aa 67 2e bf 15 33 20 be
       -0.069867484 0.0032802366 -0.6812693 -0.15644486
0000a0 29 d8 b6 bc 9d 24 fd 3d a9 11 f3 3e 89 5c 8a 3d
       -0.02231987 0.12360499 0.4747441 0.06755931
0000b0 a4 ad 29 3f b6 83 98 3d a7 67 5c 3d 88 89 13 3f
       0.6628058 0.07446997 0.053809788 0.5763173
0000c0 36 88 ca 3b a1 d2 ec 3e cd 94 ac bd 29 25 43 bd
       0.0061807884 0.46254447 -0.08426819 -0.04764286
0000d0 78 ab 8a bd be 80 1e 3c ab 10 54 3d 08 07 e8 bb
       -0.06770986 0.009674249 0.05177371 -0.0070809163
0000e0 ed 54 6a bd 15 ce 6b 3d 73 b4 f1 bd 18 29 29 3d
       -0.057209898 0.057569582 -0.11801996 0.041298956
0000f0 86 54 d9 3d e6 dc c2 bc 85 3e 93 bc cc f0 23 3e
       0.10611825 -0.023786973 -0.017974148 0.16009825
000100 df db 18 bd 68 21 ac bd 33 51 ec 3e d0 66 d7 3e
       -0.03731906 -0.08404809 0.461557 0.42070627
000110 e4 fc 5b 3d 81 f4 39 bd 2e c2 31 be d1 49 1c be
       0.053707972 -0.045399193 -0.1735923 -0.15262534
000120 c2 03 9e 3d d6 b1 80 bd 4e 98 09 3b ce 0e 91 bd
       0.077155605 -0.062839195 0.0020995322 -0.07082902
000130 d6 a3 72 bc 9a eb a7 bd 12 6c 24 3e df 99 c7 3d
       -0.014809569 -0.08199234 0.1605685 0.097461455
000140 7b 7d dc bc 0b ee f4 3e 79 24 02 3b 1b bc 89 3e
       -0.026915303 0.47837862 0.0019858165 0.26901326
000150 72 28 4c bd 99 9c 64 bc 10 0f ec bc 3c d7 2c 3e
       -0.04984326 -0.013953351 -0.028815776 0.1687898
000160 39 4c 4b bb 6f 13 4d 3e 72 91 da bb 00 81 70 3c
       -0.0031020774 0.20026945 -0.0066701705 0.0146791935
000170 89 f5 0b be 80 26 29 be 17 5f 80 3d 8d 93 63 bd
       -0.13667883 -0.16518593 0.06268137 -0.055560637
000180 5c a9 5b be e3 ec ef 3d d6 7e ee be 64 bf 16 3e
       -0.21451324 0.117151044 -0.46581143 0.14721447
000190 01 ed 4b 3e b8 15 97 bd d1 92 d8 3b 61 a9 fb bd
       0.19914629 -0.073771894 0.0066092988 -0.12288166
0001a0 8c c2 e5 bc bb 44 1d bd 2a 7b 43 bd ac cc 13 bd
       -0.028046869 -0.038395625 -0.04772488 -0.036083862
0001b0 06 21 67 bc 69 96 3f 3c 3c e6 7f 3e 35 93 e8 bd
       -0.0141069945 0.011693575 0.24990171 -0.113562025
0001c0 93 1c 7d bc 5a 12 55 bd 24 d5 1d 3f f5 7b 19 3c
       -0.015448707 -0.052019455 0.6165335 0.009367933
0001d0 16 72 ce be 9e 49 38 be 85 20 6b bd 8d 28 85 bc
       -0.40321416 -0.17996833 -0.05740406 -0.016254688
0001e0 2d 8b 76 3d 2c c3 4a bd 7b 77 82 be 75 65 37 bd
       0.060191322 -0.049502537 -0.2548178 -0.04477449
0001f0 3f ff 9a 3c 5d 6e 31 bd d7 73 a9 bb 36 67 29 3c
       0.018920539 -0.04331814 -0.00517128 0.010339549
000200 84 fd eb bd a5 81 95 3d 95 2a 37 3c c0 3c f4 3e
       -0.11522964 0.07300118 0.011179586 0.477026
000210 ad 29 66 bd b5 f1 75 be b6 0b 84 3e 88 c6 75 be
       -0.05619209 -0.24017985 0.25790185 -0.24001515
000220 89 bd 94 3e e0 e8 10 3f 44 5f 6d 3e 9a b1 90 3d
       0.29050854 0.5660534 0.23180872 0.07065125
000230 54 77 a6 3d 48 49 dc 3c 32 28 1c 3e e4 b8 41 bc
       0.08128229 0.026890412 0.15249708 -0.0118238665
000240 cf f9 de 3d 93 d6 91 3e 76 4a 4c bc 7f ae 67 be
       0.10887491 0.2848402 -0.012468925 -0.22625159
000250 49 81 15 bb 70 67 c9 3d 48 ee 2e 3e e7 d4 5a 3d
       -0.0022812656 0.09834182 0.17083085 0.053425696
000260 72 c9 8c bd 2a 91 4a bd 5b b8 83 be 9f a1 0e bd
       -0.0687436 -0.049454845 -0.2572659 -0.034822103
000270 ba ee 92 bc 65 af 3a 3e 20 cf 9d 3e 34 f9 42 3e
       -0.0179361 0.1823097 0.30822086 0.19040376
000280 eb ef 8a 3d 93 6f db 3d 94 e3 48 be f1 91 e4 3c
       0.06784042 0.107146405 -0.19618064 0.027901622
000290 48 c7 52 3e 92 d6 26 3d c0 69 b0 3e 64 13 e5 bd
       0.20583832 0.040731974 0.3445568 -0.11185339
0002a0 a2 25 8f 3d 6e 5c 96 3d 87 2a 59 3e d1 08 54 3d
       0.069896 0.07341848 0.21207629 0.05176622
0002b0 66 e3 88 be 48 89 ef 3d d8 51 f2 3d d4 d0 63 bd
       -0.2673599 0.11696106 0.11832017 -0.055619076
0002c0 50 96 5f bd 50 58 dd 3e f5 16 91 bd ab 74 bb bd
       -0.05458671 0.4323144 -0.07084457 -0.09153112
0002d0 85 b7 42 bc ec 40 d3 3c 61 32 45 bd 0b 16 a9 bd
       -0.011884575 0.025787793 -0.04814375 -0.082561575
0002e0 77 6f 1f 3c 86 12 ba 3c fb 9e 98 3c 73 ec 88 bc
       0.009731165 0.02271391 0.018630495 -0.01671431
0002f0 3a bf fa 3d e5 fb 95 bd 3b b0 b5 bd e9 5e 92 3d
       0.12243505 -0.07323436 -0.08871504 0.07147009
000300 62 e2 34 bd a7 e9 93 3d 57 a2 af 3e 62 e2 02 be
       -0.044161208 0.072223 0.34303543 -0.1278167
000310 e4 94 9a 3d 87 e0 6c bd e9 38 08 bd 7e ee 55 bd
       0.0754793 -0.057831313 -0.0332574 -0.052229397
000320 13 43 db 3d 61 0f 7e bd f9 3b c0 3c 29 7d 7f bd
       0.10706153 -0.062026385 0.023466097 -0.06237522
000330 d4 30 8b bd 82 09 98 3d 9b ee 80 3e 49 0d 36 3e
       -0.067964226 0.074236885 0.25182042 0.17778505
000340 44 5d ba 3b 42 d4 2b 3e 92 14 87 bd 96 83 4b be
       0.0056873877 0.16780189 -0.0659572 -0.19874415
000350 ac 1d be bd 8d 8c 8f bd e9 4b 8a 3d 48 fa b0 be
       -0.09283003 -0.0700923 0.0675276 -0.3456595
000360 0c 3e 07 3d f0 c4 42 bd 86 ed 05 bc 5e 46 aa 3d
       0.033018157 -0.047551095 -0.008174306 0.08314203
000370 51 9d 52 be 15 61 8b 3e 06 c2 b1 3d 4f dd a2 bc
       -0.20567824 0.27222505 0.08679585 -0.019880919
000380 e3 b4 14 bd 70 6f ef bd c6 9e b6 be bf 40 2b 3e
       -0.03630532 -0.11691177 -0.3566801 0.16723917
000390 8c 2f 38 3e 0c f1 31 bc de f4 62 3d 3f eb e6 b9
       0.17986888 -0.010860693 0.055409305 -0.0004404429
0003a0 e1 2f a2 bd f2 81 97 3c c0 31 22 bc d7 8a c4 3e
       -0.079192884 0.01849458 -0.009899557 0.38387176
0003b0 db b4 8d 3d 94 ff 4a bd 9e 85 0c be e7 d0 35 bd
       0.06919261 -0.049560145 -0.13722846 -0.044388678
0003c0 73 95 9e bd c8 fb 16 bd 84 11 3b bd 05 46 11 bc
       -0.07743349 -0.03686121 -0.045671 -0.008866792
0003d0 27 79 84 be d0 2a 40 be 44 b6 bd 3c fb 9a 99 3b
       -0.25873682 -0.18766332 0.0231582 0.0046876646
0003e0 4f dc 74 3d 0a 66 4f bd ad 3b 60 3c 52 ae 9e 3c
       0.059780415 -0.05063442 0.013686103 0.019370232
0003f0 a3 dd e8 3c 93 01 a5 bd 07 57 52 bd 0f 7f 9d bd
       0.028425997 -0.08056941 -0.051352527 -0.0769025

bias f4 [12]
000000 6b 37 de 3e 97 11 8b 3e 4d 05 d2 3e 09 32 9a 3d
       0.43401656 0.27161857 0.4101967 0.07529075
000010 98 f1 41 be 75 54 34 3b b9 23 22 be 0f 26 46 3e
       -0.18939817 0.002751616 -0.1583394 0.19350456
000020 07 1a 68 be b7 0f 70 be 13 15 8d be 04 2b ab be
       -0.22666179 -0.23443495 -0.2755514 -0.33431256
