my_cnn_model.pkl (torch_old, 629634 bytes, 8 tensors)

weight f4 [32, 3, 3, 3]
00000000: 70bf 20be c5bc cfbd 9bcd bebd 506f 82be
00000010: 6972 eebd 1123 54be a883 0cbe b384 7dbc
00000020: a374 773d ccce 0e3e 4784 9cbd fa95 7e3e
00000030: 5dce 45be cf48 ba3d f35f 6dbe 4bda ebbd
00000040: 3ba8 43be 9917 dc3d ceec 43bd 47b6 05be
00000050: f93c 2d3e 299b 31be 17c7 51be e6b4 1abe
00000060: 01a6 dcbd 177d 6abe 8446 273e b282 043e
00000070: 762a 1a3e 9642 cd3c 6437 0dbe f484 81bc
00000080: 1deb 0abe 1114 86bd 3dfd 3ebd ff96 3b3e
00000090: 98bc b93c f1ca d2bd 7bf4 9bbd ec39 f33d
000000a0: 82a0 953d 2674 debd 2d0c 373e 17a1 90bd
000000b0: a23f 49be d450 65be a3cc ed3c a0e9 39be
000000c0: ebb8 3f3e 33b3 393e 0e71 2b3e 078d 9b3d
000000d0: e4a5 ff3d f440 1cbd 409c 713e fc15 2e3e
000000e0: 6c39 61be adb6 f93c cfa1 093d d86f a03d
000000f0: 3931 143c 1d93 003d cf53 51be 5af9 273e
00000100: 3a06 28be 18ef a3bd 035a b1bc 2ce7 bbbd
00000110: 5310 6b3d 60aa 003e caa6 8bbd 980b 673d
00000120: 1803 303e 05c2 d23d 8a51 c9bd 621c 1b3e
00000130: c9d9 6bbd 215f 49bc 39cd 04be 6cc2 45be
00000140: ecec a93d a60e b2bd e655 273e b14c a4bd
00000150: 7f9e eabd 6479 2dbd b14e 7c3e f2c3 17be
00000160: c311 94be d388 afbd 920c d63d 3831 f6bd
00000170: 2387 fdbd c1ba 0dbe 5c4b 1e3c 25a8 acbc
00000180: c059 cdbe 54dc a6be 7580 4bbd 9ae5 35be
00000190: 419e 30bd acc0 bd3c ca23 c53d 0ba0 2a3b
000001a0: 3164 263e f764 cbbe af78 8abe fa51 84be
000001b0: 2f76 1b3e 677c 973e 9036 c13d bac9 243c
000001c0: 74a9 52be 9521 023e 8b4e 59be d40d 5e3d
000001d0: 18c4 02be ba7f bcbd 783a a23e f4d8 393e
000001e0: 3836 15bd a2cc 3dbe dcf7 42be bfb6 5dbe
000001f0: 90a3 8abd ca2b f43d 182a e83d 44f6 853e
00000200: 80a6 a5bd ab7c b6bc dc24 0fbd 4f3e 20be
00000210: 13d4 fb3c 883c 38be 4237 27bd 85f6 283e
00000220: f33c 823c 54ff cdbd 6b72 68be f4eb 09bd
00000230: 8422 93bc ffd2 bf3c 087c ec3d ee6d 623d
00000240: e524 12bd 5ebe 133e 48b7 eabd 4445 bfbd
00000250: 0b80 14be 7232 6cbe 0085 7b3e ea5c aabd
00000260: 56f5 253d 9dc5 333e 3c4c fcbd 8ce1 bd3d
00000270: 7ee2 b8bd e1a7 79be 5e5d d4bd f9f7 843e
00000280: be09 4a3e 4bae 943e 2392 1a3e a409 43be
00000290: 11ea 83bd e658 703e 9c5f 1cbe c508 96be
000002a0: 9dc1 093e 73fc 6c3d 1f3a 033e f30d 513e
000002b0: 6cb2 82be 54ca 4cbe 5608 943e 43c0 adbd
000002c0: 5024 2ebd 6926 8abd c6e2 653e f929 66be
000002d0: e79e 8d3c bbe3 83bd 4907 30bd d4be b43e
000002e0: 6a10 313d ab8c 2cbe b944 dcbd e8bb 5b3e
000002f0: 8450 b0bc 593c 1fbe ad71 07be 48ff 4dbe
00000300: af66 babd 1137 5dbe c5a9 7ebc 8664 93be
00000310: fa0c 9dbe 9575 893e cabb 193d cdda 43be
00000320: ecf9 94be a007 20be e0f8 8cbe 42fe febc
00000330: a74c 82be 1040 80bd a848 903e e1b6 d53c
00000340: 0737 42be 02fa f03c f36a d3bd f1e9 12be
00000350: a754 02bd 0883 96be 6ba4 c7be 38dd 083e
00000360: a7df 753d cbc2 413e 7e41 153e c86b e53d
00000370: 1d37 77be bc43 47be 6a18 d73d 5440 e83d
00000380: da46 703e c5c0 a13c 511f 05bb bbaa f83c
00000390: e933 39be 388d 58be bcb3 55bd b5a8 9abc
000003a0: 69e4 1cbe 0aec 583e d497 aabd 1c1c 39be
000003b0: 1911 a83d b70f 3d3d 60fb 9b3d 6659 38be
000003c0: f945 0fbe 633f 243e b6e4 873e 6cb5 d33d
000003d0: e7c2 46be 4209 02bd 9271 163e 732c 30be
000003e0: 5b56 dabd 5139 543e fbfb 663e e740 aebc
000003f0: e9c8 41be c26e b03c 8071 b13d aa31 643c
-0.15698028 -0.10143427 -0.0931656 -0.2547555 -0.11642916 -0.20716502 -0.13722098 -0.0154735325
0.060413968 0.13946074 -0.076424174 0.24861899 -0.19317003 0.090959184 -0.23181133 -0.115162455
-0.19107144 0.107466884 -0.047833256 -0.13057815 0.1691779 -0.17344345 -0.20486103 -0.1510807
-0.1077385 -0.2289928 0.16335493 0.12940481 0.1505526 0.025056165 -0.13790661 -0.015810467
-0.13566251 -0.06546796 -0.046628226 0.18319319 0.022672936 -0.10292614 -0.0761499 0.11876282
0.07306005 -0.10861997 0.17875738 -0.070619754 -0.1965318 -0.22394115 0.029028242 -0.18155527
0.18722884 0.18134765 0.16742346 0.07595258 0.12482813 -0.03814788 0.23594761 0.17000574
-0.21994561 0.030482614 0.03360158 0.078338325 0.009044939 0.0313903 -0.20442127 0.16403714
-0.16408625 -0.08004588 -0.021649366 -0.09174952 0.057388615 0.12564993 -0.06818922 0.05640754
0.1718868 0.102909125 -0.098300055 0.15147546 -0.057580743 -0.012290747 -0.12968911 -0.19312447
0.082971424 -0.086942 0.16341361 -0.0802244 -0.11456012 -0.042352095 0.24639393 -0.14820841
-0.289198 -0.08571019 0.10451616 -0.120211065 -0.12379291 -0.13840772 0.009661522 -0.021076271
-0.40107536 -0.32589972 -0.049683053 -0.17763367 -0.043119673 0.023163162 0.09625967 0.0026035334
0.16249157 -0.39725468 -0.270452 -0.25843793 0.15181802 0.295871 0.09434235 0.010057861
-0.20572454 0.12708123 -0.21221368 0.054212406 -0.12770116 -0.092040494 0.31685233 0.18149167
-0.03642866 -0.18535092 -0.19039863 -0.21651743 -0.06769478 0.119224146 0.11336154 0.26164448
-0.08088398 -0.022276243 -0.03494726 -0.15648769 0.030740773 -0.17991841 -0.040824182 0.1650029
0.015898203 -0.100584656 -0.22699897 -0.033672288 -0.017960794 0.02341604 0.115470946 0.05528062
-0.035679717 0.14428088 -0.114607394 -0.09339383 -0.1450197 -0.23066118 0.24562454 -0.08318503
0.040517174 0.17555852 -0.12319228 0.09271535 -0.09027575 -0.24380447 -0.10369371 0.25970438
0.19730279 0.29039225 0.15094809 -0.19046646 -0.06441129 0.23471412 -0.15270847 -0.29303566
0.13452764 0.05785794 0.1281514 0.20415477 -0.2552675 -0.19999057 0.2891261 -0.08483937
-0.0425151 -0.067456074 0.22449788 -0.22476949 0.017287685 -0.064399205 -0.042975698 0.3530184
0.043228544 -0.16850536 -0.10755295 0.214584 -0.021522768 -0.15550365 -0.13226958 -0.20116913
-0.091016166 -0.21603037 -0.015543406 -0.2878763 -0.30673963 0.2684752 0.037532605 -0.19126435
-0.29096925 -0.15627909 -0.27533627 -0.031127099 -0.25449106 -0.06262219 0.28180432 0.02608818
-0.18966304 0.029416088 -0.10323133 -0.14347054 -0.031819012 -0.29396844 -0.38992628 0.13365638
0.060027745 0.18921964 0.14575765 0.11202198 -0.24142118 -0.19459432 0.105027035 0.113403946
0.23464528 0.01974524 -0.0020312855 0.030354848 -0.18086208 -0.2114762 -0.05217336 -0.018879274
-0.15321507 0.21183792 -0.0832974 -0.18077129 0.08206386 0.046157565 0.07616305 -0.18002853
-0.13991536 0.16039805 0.2654168 0.10337338 -0.19410287 -0.03174711 0.14691761 -0.17204456
-0.10661002 0.2072499 0.2255706 -0.021271182 -0.18924297 0.021537188 0.086642265 0.013927856

bias f4 [32]
00000000: 6950 0cbc bae9 b4bd ceed 9e3b 7644 033d
00000010: 5b81 b03d c9ca 273e c3ae 413c 30e5 123e
00000020: f9d2 953d 9145 233e f8b9 e43d 131c 4c3c
00000030: 3cc5 31bd 612f 0c3e b8c0 ffbd b14d 3abe
00000040: 8766 f2bd 3bb7 ec3d ba1a 2a3e be7c f33d
00000050: 7421 e23d 4bc2 093c 895a 4dbd 0c1c a8bd
00000060: ff8f 743e c3b2 3b3d bf76 f23c 7f0f ff3d
00000070: 32b5 eb3d 39c6 86bc 56fe 223d 0a14 8ebb
-0.008564093 -0.08833642 0.004850126 0.03204771 0.086184226 0.1638595 0.011821452 0.1434524
0.073156305 0.15944506 0.11168283 0.012457865 -0.043400988 0.13689949 -0.1248793 -0.181937
-0.11835962 0.11558386 0.16611758 0.11889027 0.11041537 0.008408139 -0.05013517 -0.082084745
0.23883055 0.045824777 0.029597638 0.124541275 0.1150917 -0.016451942 0.039793335 -0.004335885

weight f4 [64, 32, 3, 3]
00000000: de55 edbc 37d5 003d 0c0c b7bc 4fe0 babc
00000010: 839d 593d c4a9 9a3c 42da ecbc 4c1d 433d
00000020: 9f82 763d b1d0 93bc 4c67 1bbc 1681 97bc
00000030: 6a5c 643d 91cc fb3b f490 16bd 41eb 08bd
00000040: a243 2a3d 46c0 293d 4edf 41bd dc00 363c
00000050: d258 5e3d edec 1fbd 33b6 493d 143d 2fbd
00000060: 9bb9 653d c472 75bd dfa5 463c 4dca 383d
00000070: a1d9 433d 8585 97bc 1504 b73c 86bd 053d
00000080: 3d83 a239 9912 24bd 1c5f 8f3c 1771 c5ba
00000090: f552 253d 432a c93c eca6 a63c a880 1bbd
000000a0: 2f62 25bd 1b24 543d 5f57 a03c 5d55 e63b
000000b0: dfd9 cbbc c8aa 47bc 4a98 3c3d d860 78bc
000000c0: a06d 2d3d 3215 28bd bafc 38bd 03b1 a1bc
000000d0: 2554 edbc 84b8 11bd aec1 01bd f0dd 7a3d
000000e0: 6fc4 0d3d 326e e73b 63c8 903d 078d 51bd
000000f0: 0a3f 6ebd e624 6a3d c2fa 16bd 04dc 3d3c
00000100: 861a 17bd cd67 6b3d 84d5 33bd 20d5 143d
00000110: 558e 70bc 9b7b 06bd ab7c dabc f36e 1c3d
00000120: 0bb1 9f3c be0c 33bd 5f32 743c afac 5e3d
00000130: f80e 87bd fd07 933d dc2e 1b3d 15ec 2d3d
00000140: b694 4ebc bea8 48bd 2740 763d b56f 4a3d
00000150: d36d 913a da40 1dbc 6fca 603d bb37 17bc
00000160: d08c 83bb b097 2ebd e388 ed3c 0912 b13c
00000170: ee5e 803d b0a4 903b 2094 b5bc 2db0 e7bc
00000180: e07a b93c d7ed 5abc 45c1 08bd 1fa3 23bd
00000190: 4744 063c c863 8a3c a227 8dbc 1efe 7cbd
000001a0: 39b8 223d 2e80 2abd d220 1e3c e392 0e3d
000001b0: bf44 1cbd c83c 0dbc 6fe8 a3bc 45d0 e4bc
000001c0: eed0 5b3d c172 3f3d 855d 16bd 52fc cb3c
000001d0: df93 2cbc a159 093d 5feb 76bb f1bd b9bc
000001e0: 20fa b53c 46a4 503d 46da 17bd 43a1 673d
000001f0: c3a5 d03b 4264 b6bc 2184 acbc c6ca 40bd
00000200: 7bed 273d 6b4e 2abc dbba 30bd 59a1 2a3d
00000210: 9a45 38bd 98e2 30bd ef4d b13c 69d4 85bd
00000220: a6e7 d73c 6fd9 35bd d86d b3ba 67fa 303d
00000230: 7cd0 9d3c acd3 f8bb 343e ddbc ca2a b7bb
00000240: 60a5 3b3c f45f 31bc ae66 d93a eae9 29bd
00000250: d153 523d 4419 71bd 263a 3bba 1a23 12bd
00000260: 4a1e b83b f63d dabc d3f2 df3b 6437 58b9
00000270: ea52 83bd 4792 07bd 548f 81bd 1c90 8cbc
00000280: 5e31 943b a0d9 1abc 2604 5cbd d36f 7cbc
00000290: 749d 7fbb a0c0 dabc 9e18 2f3c 5a85 c5bc
000002a0: 1389 a33b 70ad 13bd 1aa1 56bd c0da c73c
000002b0: c960 67bd 1ce9 843c 099b b53c cac8 72ba
000002c0: e8a4 8bbb cd72 ebbc cf9c 3cbd ae94 6c3d
000002d0: cb84 e6bc 1a1a 4a3c c856 913c 4d5f 37bc
000002e0: 8b7e 8c3b 55ba 42bb ffab 5e3d dd34 e73c
000002f0: fe36 893c 2555 d9bc 94b5 9d3b a36a b0bc
00000300: 2fc0 9d3c b15e 503d 31a9 ed3b c4b4 023d
00000310: a978 2e3d f280 89bd 34c3 b33c fd2f 373d
00000320: 8037 27bd 3a5a 41bd fafa 213b 3449 163d
00000330: a640 383d c7b7 733d d0af 1f3d 1b48 653d
00000340: 6597 183d b10e 11bc 2b60 e13c fd7a 873d
00000350: c908 493d 629c 80bd ef21 a33c 21d3 4bbc
00000360: 3933 373c 32e9 263c acb0 d93c 4b0b 6e3c
00000370: d1d0 3f3c 6670 9abc 5188 7b3d bfee 13bd
00000380: 6435 07bd 3296 5abb 320a 083d 6f73 23bd
00000390: 5b9a 173d 1c56 9fbb 9290 243c 3daf 80bc
000003a0: d7eb a83d 4086 ba3c de67 273c e8e9 e439
000003b0: 821a ae3d 743d 06bd e092 bcbc 9cc7 cf3c
000003c0: a2cd 20bd 58b3 1a3d 4829 1abc 00ee 7fbc
000003d0: 5c97 873d d55f c2bc 95ae 433d 8689 4e3d
000003e0: 7739 4e3d 2965 443c d266 993c da2c e0bc
000003f0: 88af 2d3d 7a70 513d 4fe3 6fbd 7aba 80bd
-0.028971609 0.031453338 -0.022344612 -0.022812037 0.05312873 0.018879779 -0.028912667 0.04763536
0.060183164 -0.018043848 -0.009485077 -0.01849417 0.055752195 0.0076842983 -0.03675933 -0.03342748
0.041568406 0.041443132 -0.0473321 0.011108603 0.054283924 -0.03904431 0.049246024 -0.042782858
0.05608521 -0.059923902 0.012124508 0.045114804 0.04781497 -0.018496284 0.022340814 0.032651447
0.00030996828 -0.0400568 0.017501406 -0.0015063611 0.040362317 0.024556285 0.020343266 -0.037964493
-0.04037684 0.051792245 0.019572912 0.007029219 -0.024884162 -0.0121867135 0.04604367 -0.015159808
0.042340875 -0.04103584 -0.045162894 -0.019737726 -0.028970787 -0.03557636 -0.031678848 0.061246812
0.03461116 0.007062697 0.07069471 -0.051159885 -0.058165587 0.057164095 -0.036860235 0.0115881
-0.03689053 0.05747204 -0.043904796 0.036336064 -0.014682372 -0.032832723 -0.026670774 0.038191747
0.0194936 -0.043713324 0.0149045875 0.054363903 -0.06594652 0.07179258 0.037886485 0.042461473
-0.012608698 -0.04898905 0.060119774 0.04942294 0.0011095352 -0.009597981 0.054880556 -0.009229596
-0.004014589 -0.04262513 0.028995937 0.021615045 0.062681064 0.0044141635 -0.022165358 -0.02828225
0.0226416 -0.0133623695 -0.03338744 -0.039950486 0.0081949895 0.016893283 -0.017230812 -0.061765783
0.03972647 -0.041626148 0.00965138 0.03480805 -0.0381515 -0.008620448 -0.020008294 -0.027931342
0.053666048 0.046740297 -0.03671028 0.02490059 -0.010533302 0.033532742 -0.0037676913 -0.022673579
0.022213995 0.050937913 -0.037073396 0.056550276 0.0063674166 -0.022264604 -0.021059098 -0.04706838
0.040997963 -0.010394673 -0.04314695 0.04165778 -0.044988252 -0.043184847 0.021643607 -0.06534655
0.026355576 -0.044396814 -0.0013689352 0.043207552 0.019264452 -0.0075935926 -0.0270072 -0.0055898177
0.011453003 -0.0108261 0.0016586387 -0.041482843 0.051349465 -0.058861986 -0.00071421487 -0.035678007
0.005618845 -0.026640873 0.006834367 -0.0002062 -0.06412299 -0.033098485 -0.06326166 -0.01715856
0.0045224866 -0.0094513 -0.053714894 -0.01540752 -0.0039003761 -0.026703179 0.010687022 -0.024111439
0.0049907058 -0.036054075 -0.052399732 0.0243963 -0.056488786 0.016224436 0.022168653 -0.0009261487
-0.0042616017 -0.028741265 -0.04604798 0.05775898 -0.028139492 0.012335325 0.017741576 -0.011192155
0.004287546 -0.0029713113 0.054363247 0.02822345 0.016749855 -0.026529858 0.0048129056 -0.021535223
0.01925668 0.050871555 0.007252835 0.031910673 0.04259554 -0.067140475 0.021943666 0.0447235
-0.040824413 -0.047205187 0.0024716244 0.036690906 0.04498353 0.059501436 0.038986027 0.05597697
0.037253756 -0.0088536 0.027511677 0.06615255 0.049080644 -0.06279828 0.019913642 -0.012440474
0.011181646 0.010187434 0.026573502 0.01452906 0.011707501 -0.018852424 0.0614093 -0.036116358
-0.0330099 -0.0033353684 0.033212848 -0.039905008 0.03701244 -0.00486256 0.010044234 -0.01570856
0.08248108 0.022769094 0.010217635 0.00043661823 0.0850115 -0.03277345 -0.023019254 0.025363736
-0.039258607 0.03776869 -0.009409256 -0.015620708 0.066206664 -0.023727337 0.047773916 0.05042412
0.05034777 0.011987009 0.018725786 -0.027365137 0.042403728 0.051132657 -0.058566388 -0.062855676

bias f4 [64]
00000000: e7d7 30bd 0218 3c3d 1f6e bcbc 4a3d a43b
00000010: 4098 8ebc ed6b 51bd c095 7e3d e383 9e3c
00000020: ed9f a93c ef40 4ebd 72e5 46bd 83fa cf3c
00000030: d67d efbc f144 f8bb 81ed 363d 3efe 1b3d
00000040: def3 84bc 487d 10bd 1391 57bc cdef 243d
00000050: f93e 05bd 83aa 513d 7535 07bd 148d b63b
00000060: 72b2 d3bc 1ef3 183d 8322 ec3c cd28 3d3d
00000070: 9139 42bc 8877 1cbd 9866 fbbc a5e5 63bd
00000080: c826 113d 911c 81bc 6bdb 01bd 0b6f 27bd
00000090: 4cfd 35bd 6d7f db3b 3ad1 b23c c5a0 90bc
000000a0: ed2c 873c a58c 2f3d 0c5b 9ebc f694 44bc
000000b0: 9a87 2d3d cfc8 ca3c 67d0 d9bb 283b d33c
000000c0: 13fc 8d3c fa76 debc c2e6 943c 40ff 0bbd
000000d0: 89f9 ff3c 385d 523d 4c56 833b 57b6 0d3d
000000e0: 51fd 59b9 a576 d0bc f7f2 153c c538 76bc
000000f0: 67bb 1f3c f1ed 5f3d b577 253d 50b5 313d
-0.04317465 0.045921333 -0.023001729 0.005012189 -0.017406583 -0.051128317 0.06215453 0.019349998
0.020706141 -0.050354894 -0.04855866 0.025388008 -0.029234808 -0.007576578 0.044660095 0.03808426
-0.016229566 -0.035275728 -0.013157147 0.040267754 -0.03253076 0.051188003 -0.033009965 0.005571017
-0.025841925 0.03734123 0.02882505 0.04618149 -0.011854545 -0.03819993 -0.030688569 -0.055638928
0.035437375 -0.015760692 -0.031703394 -0.040877383 -0.044431016 0.00669854 0.021828283 -0.017654786
0.016500914 0.04285874 -0.019330524 -0.011998406 0.042365648 0.024753956 -0.006647158 0.025785044
0.017332112 -0.027156342 0.01817644 -0.034178972 0.031246917 0.05135843 0.00400809 0.03459772
-0.000207891 -0.0254472 0.009152166 -0.015028183 0.00974927 0.054670278 0.040397365 0.043385804

weight f4 [128, 1024]
00000000: d2c6 c039 dcca 7e3a 6f8f 8ebb 2780 38ba
00000010: 27d3 71bd 6068 abbc f748 beb9 cfa3 adbc
00000020: 02ea a43c 2870 d53b 8bdb 823c b4d7 1abd
00000030: 2840 eebc fa85 0b3d 40f8 19bc fec0 34bc
00000040: 260d b7bc 7cec 04bc 3c96 573c 15b2 51bc
00000050: 500e 763b 6402 b0bc e00f d43a 7615 9dbc
00000060: 7c7f c9bc 3ecf 853c c0d2 a4bb 3015 c7bc
00000070: 5884 c6bb 93b7 5a3c d0f6 113b 7eb2 fe3c
00000080: 2c8d 883b 3901 47bc d4a0 e23c e342 d1bc
00000090: 6896 cbbc dda2 053d 3053 053d a113 0abc
000000a0: 8dd6 2f3c 369c d0bc 7a12 133b e404 383c
000000b0: 1a25 683c ef12 483d 8925 f2bc f66a 563c
000000c0: 2507 09bd 4c2e 6cbd 4872 d5bc 9922 a3bc
000000d0: 3686 85bc 2bf0 993c 2015 1ebc 5cbe e7bc
000000e0: 7ea4 a4bc d87f 31bc 4c44 b43c 63d5 c7bc
000000f0: a4f5 833c 5e94 b43d 2431 ae3d 5aae f2ba
00000100: 82da cb39 aec4 ae3c 0563 efbc 9cb0 3c3c
00000110: 5688 e7bc d04b 23b9 2302 5fbc dc4e 0239
00000120: 6918 c43b 0651 89bc a25b 56bc 0332 1bbd
00000130: cf58 cb3b 7318 213c 9d6e 3bbd f29d 12bc
00000140: fc28 fbbc 1c4b 82bc e0f6 b23a 1bcc 733b
00000150: de16 95bc 10aa c8bc 8a7a 85bc a4b9 0f3c
00000160: 3042 8b3b 4001 603c 107b 6fbb c607 a4bc
00000170: b580 01bc 45a0 be3c 37c0 533c fc8c 723c
00000180: 2cfe 243d 6c32 a43c 4be2 a138 f5de bfbc
00000190: 6d89 debc e690 1cbc c667 04bd 0695 d8bc
000001a0: 36da 7e3a bed6 ad3b e166 1cbc 2428 35bc
000001b0: 3a77 88bc 2c5a ed3c 51fa b6bc bd9c fd3c
000001c0: 3082 053d a74c ed3c 8513 c5bc a5fc 1ebc
000001d0: 25b4 1fbd 2b73 db3c 8619 473c 103c 91bc
000001e0: 7e09 ebbc 8983 023d 929b 41bc 6da5 a6bc
000001f0: 51b6 54ba 7786 383c a40b 29bd 0f9f b6bc
00000200: db4b 61bb 737a 3b3b 1aee b2bc a63c 83bc
00000210: 7ddd 343c 6a05 a3bb 8e31 3cbc 4f24 703c
00000220: 505e 7a3b 4804 c0bc 3466 323b 21a6 01bd
00000230: 7f71 cbbb 75f8 ee3c c03d 393d 76d2 b83a
00000240: 4f8f 62bc 4099 c43c 60f3 603c ec2d 85bb
00000250: 0097 1d3d d968 2ebc 9413 633c 6e38 df3c
00000260: d95f 2fbc 7513 853c 1b5d 0d3c 3392 1aba
00000270: bd04 d53b 6332 3a3d a74b 4dbc 85c2 503c
00000280: ee38 86bc 3a9e 403c 3664 e3bc c4f4 c1bc
00000290: e7e7 d8ba a154 1dbc d3b0 d93c 7103 b3bc
000002a0: 29fb 443c ff04 9cbc 85b4 063d dedd 8fbb
000002b0: 29db 553c cf15 9d3c 5a63 2fbd 1733 64bc
000002c0: 7250 67bb 4d3f b2bc d587 fbba cc55 57bb
000002d0: cd15 8c3c c510 e23b b3ae ebbc 4ec3 c43c
000002e0: e195 2abc 17ce aebc 2541 133d 7bad 2f3c
000002f0: 418a ef3b c9bd 0fbc 5c4b 03bd c762 8dbc
00000300: 9799 2abc fb67 943c 7d50 4abb 0643 a43c
00000310: b7e3 373c 06b0 ba3b f0dc 66bc cfe0 ae38
00000320: 4960 ac3c be29 d83c 9341 2a3c 2060 f5ba
00000330: d7ad 05bd 2d8d 483d 9a32 423c e6d7 a73c
00000340: 5ab4 893c 9879 b7bc c314 0a3d d8a7 0d3d
00000350: 0820 91ba d6b9 8cbb f190 f7bc 3c65 243c
00000360: 7182 4dbc 12b8 703c 9ca4 80bc 66bc db3c
00000370: c1a3 4b3c fc36 a5bc b757 05bd 2d97 8cbb
00000380: 6189 963c 0186 4bbd 2a47 cebc d86b 82bb
00000390: 0da4 24bd 73f2 3dbc 3f45 94bb f1c9 b5ba
000003a0: 1e10 debc 0754 71bc a0d6 0ebc 0208 d5bc
000003b0: 7c8a 16bc 8e6c 243c edcd f33d 06a9 9638
000003c0: 2f22 363c 67c0 1e3c 890c 02bd 3a60 8bbc
000003d0: 6ff1 f3bc 369f e2bc f910 853b 8290 d23b
000003e0: ad81 c1bb 4770 a93c b11e 403c 865f 2f3c
000003f0: 193f 153c e62b 333d 1cfe e2bc b99c 12bd
0.00036769226 0.00097195595 -0.0043505947 -0.0007038139 -0.05903926 -0.020923793 -0.00036293987 -0.021196274
0.020131115 0.006513614 0.015973827 -0.037803367 -0.029083326 0.034063317 -0.009397566 -0.011032341
-0.022345137 -0.008113023 0.013158377 -0.012798806 0.0037545152 -0.021485515 0.0016179048 -0.019175272
-0.024596922 0.016334172 -0.005030006 -0.024302095 -0.006058257 0.013349432 0.0022272356 0.031090971
0.0041672196 -0.012146288 0.02766458 -0.02554459 -0.024851993 0.03262602 0.032550037 -0.008427531
0.010732305 -0.025465112 0.0022441433 0.011231635 0.014169002 0.04884618 -0.029558914 0.013087025
-0.03345408 -0.05766134 -0.02605547 -0.019913958 -0.016299348 0.018791279 -0.009648591 -0.028289013
-0.020097967 -0.010833703 0.022005223 -0.024393743 0.016108342 0.08817361 0.085054666 -0.0018515096
0.00038881978 0.021334019 -0.02922202 0.011516716 -0.028263252 -0.00015573134 -0.013611349 0.00012427144
0.005984355 -0.016762268 -0.01308337 -0.03788949 0.006205655 0.009832489 -0.045759786 -0.00894879
-0.030659191 -0.015904956 0.0013653897 0.0037200514 -0.01819938 -0.024495155 -0.016293783 0.0087722875
0.0042498335 0.013672173 -0.0036541857 -0.020023238 -0.007904221 0.023269782 0.012924246 0.014804121
0.04028146 0.020043574 7.7192286e-05 -0.023421744 -0.02716514 -0.009556031 -0.03232553 -0.026438247
0.0009721847 0.0053051403 -0.009546013 -0.011056934 -0.016658414 0.028973661 -0.022336157 0.030958528
0.03259486 0.028967215 -0.02405716 -0.00970379 -0.03899016 0.026788315 0.012152081 -0.017728835
-0.02869105 0.031863723 -0.011816876 -0.020342553 -0.00081143255 0.011262528 -0.041270867 -0.022292642
-0.0034377489 0.002860692 -0.021842051 -0.01602013 0.011039135 -0.0049750106 -0.011486424 0.014657094
0.0038203187 -0.023439541 0.0027221562 -0.031652573 -0.006208598 0.029171208 0.045224905 0.0014100808
-0.013828113 0.023998857 0.0137299 -0.004064312 0.038474083 -0.010645115 0.013859648 0.027248587
-0.010704004 0.01624463 0.008628155 -0.0005896419 0.006500809 0.04545821 -0.012530244 0.01274169
-0.016384568 0.011756474 -0.027757745 -0.023676284 -0.0016548604 -0.009602697 0.026573574 -0.021852227
0.012022772 -0.019045351 0.032887 -0.0043904623 0.01305274 0.019175438 -0.04281936 -0.013928196
-0.0035295752 -0.0217587 -0.0019190261 -0.0032857535 0.01710024 0.0068989717 -0.028769827 0.02401891
-0.0104117105 -0.021338506 0.0359508 0.010722513 0.0073101823 -0.008773276 -0.03205429 -0.017259015
-0.010412595 0.018115988 -0.0030870729 0.02005149 0.011223725 0.005697253 -0.014090762 8.3388404e-05
0.021042006 0.026387092 0.010391611 -0.0018720664 -0.03263649 0.04896276 0.011852885 0.02048869
0.016809631 -0.022396848 0.033711206 0.034583896 -0.0011072168 -0.0042946143 -0.03022048 0.010033902
-0.012543307 0.014692323 -0.015703492 0.026823234 0.012429179 -0.02016782 -0.032554355 -0.0042904825
0.018376054 -0.049688343 -0.025180418 -0.003980141 -0.040195514 -0.011593449 -0.0045248563 -0.0013869387
-0.027107295 -0.014729506 -0.008718163 -0.026004795 -0.009188291 0.010035647 0.119045116 7.1840404e-05
0.011116548 0.009689427 -0.031750236 -0.017013658 -0.02977821 -0.027663808 0.004060861 0.006425918
-0.005905351 0.02068342 0.011726067 0.010703927 0.009109282 0.043743037 -0.02770906 -0.035793994

bias f4 [128]
00000000: d15d 3a3a 421e 8b3b a477 a5bc 08c7 7fbc
00000010: 32a7 403c 2087 fdbb 3143 d23b 8d32 d639
00000020: e5a4 c23c 8de6 bd3c 4e14 d33c 14ef c73b
00000030: e5c3 b63c 1a95 33bc 5abd b9bc 6069 583b
00000040: 645e 473c b780 c1bc e8f9 043d 150d a0bc
00000050: 105f f13a 77e9 5f3c e4e6 d0bc b701 87bb
00000060: 7de1 223c 4283 a33b 66e0 e1bc 8e8d 4a3b
00000070: 1fac 73bc 4b10 c23c 3068 63bb a813 493c
00000080: aa1c a13c 36dd ce3c 6263 b4bc 2d75 abbc
00000090: 4bd2 85bb 9443 cb3c 004f 7a3a 2fdc 65bb
000000a0: 040b 55bc 96f2 5e3c 92a4 fa3b 4cc1 ebbc
000000b0: 784e 95bb b37c b93c 82f1 bb3c cd67 703b
000000c0: 06fc 903c 2985 5f3c 93bf 823c e14c 8b3b
000000d0: 3cdb d23c 760d bdbc bf9a f2bb be06 62bc
000000e0: 2de8 df3c 33d1 8abc 51f8 c1bc f0b8 8c3b
000000f0: 0c18 d0bc b337 f73c f072 ffbc 4afd c3bc
00000100: 3d99 a63b 0fbe c239 ddbe 7abc 9054 2abc
00000110: 807d 1bbb f3df bd3b 28a7 97bc 04ec a7bc
00000120: 5746 343c 44fe a83c a40b c6bc 67d3 ff3c
00000130: 64e1 aabc 1235 4d3b 7fdf b6bc e70d 8dbc
00000140: 2511 4c3c 7afc f8ba 095c bab9 7e86 f43c
00000150: a4a4 7c3c 3b6e f8bc 6498 eabb 63bb 5b3c
00000160: 2d1f 70bb bc9a 723c 3f09 8a3c 4bc6 d33b
00000170: e9ab 163c 0813 92bc 4177 c7bc 79a5 c8bb
00000180: b7a0 e33c 217c 193c c793 003d a8f6 763c
00000190: c616 dbbc dc10 1abb 5090 fc3c 9bcf b4bc
000001a0: 9708 0d3d 2950 c2bc 94c1 b33c 58d0 a13b
000001b0: 0d6d 303c a407 e438 dc76 dbbc 8827 75bc
000001c0: 0074 0f3b c68a 71bc 8516 d3bc 45a2 8fbc
000001d0: b98e fe3c 3e9d edbc fdd5 b7bc 6eeb cdbc
000001e0: fd10 3fbb 8ff2 783c feea 863b db55 e23c
000001f0: 6845 ffbc 3e9d 943a c9d1 cebc e9ab 523c
0.00071093166 0.0042455504 -0.02019865 -0.015611418 0.0117586125 -0.0077370554 0.0064167012 0.00040854924
0.023760268 0.023181224 0.025766518 0.0061014984 0.022310207 -0.010960842 -0.022673298 0.0033021793
0.012168501 -0.023620946 0.03246489 -0.019537488 0.0018415172 0.013666502 -0.025500722 -0.0041200775
0.009941456 0.0049900124 -0.027572822 0.0030907127 -0.01487258 0.02368941 -0.0034699552 0.012272753
0.019666988 0.025251966 -0.022020046 -0.020929897 -0.0040839068 0.024812497 0.0009548515 -0.0035073867
-0.013003115 0.013607642 0.007649013 -0.028778695 -0.0045564733 0.022642469 0.022942308 0.0036682964
0.0176983 0.013642588 0.01596049 0.004251108 0.025739305 -0.023077708 -0.007403701 -0.013795553
0.02733239 -0.016945457 -0.023677977 0.004294507 -0.025402091 0.030177927 -0.031182736 -0.023924489
0.0050841854 0.00037144168 -0.015304294 -0.010396138 -0.0023725927 0.005794519 -0.018512323 -0.020498283
0.011003098 0.020629056 -0.024175473 0.031228734 -0.020859428 0.003131215 -0.022323368 -0.017218543
0.012455259 -0.0018996142 -0.00035545256 0.029849287 0.015420113 -0.030326 -0.0071592797 0.013411376
-0.0036639676 0.014807399 0.016850112 0.0064628473 0.00919626 -0.01783134 -0.024348857 -0.0061232415
0.027786596 0.009367974 0.03139093 0.015073456 -0.026744258 -0.0023508584 0.030830532 -0.02207165
0.03443202 -0.023719864 0.021942891 0.0049381666 0.010768187 0.000108733104 -0.026790075 -0.014963038
0.002188921 -0.014742559 -0.025767574 -0.01753343 0.031073915 -0.029005643 -0.022440905 -0.025136676
-0.0029154413 0.015194549 0.0041173687 0.02762883 -0.031161025 0.0011338366 -0.025246518 0.012858369

weight f4 [12, 128]
00000000: 53ca da3e 0d05 a5bd 9176 063f db74 033c
00000010: 1f71 06be ec87 3dbd f0ea 0abd c3ff 6cbd
00000020: 2727 9e3d 221d a43d 297a 4d3e 3639 ae3c
00000030: 219e 5a3d a738 19bd 9f93 0cbd 4570 1dbd
00000040: be74 85bd 52e2 5fbd 02be 413e b602 85be
00000050: c7dc d6bc 5e99 8ebd ad03 a9be 9e30 88bc
00000060: 16a1 70be a3d0 db3e 5164 523d a078 aa3e
00000070: 2083 37bd de6b d8bd 3c83 5dbd 9b23 af3d
00000080: 89c0 023e 35ef 8f3e 7a4c 5a3d d207 e93e
00000090: 625c 993e 9858 983e 9245 debc b633 d63c
000000a0: 2dca 2dbd 5904 a63d cc8a 113e 6464 efbc
000000b0: d03b 71bd 3736 b1be 735f 90bd 6eb4 c93d
000000c0: e8eb e83e 0f8c 09bd 0b36 9fbd f5f1 03bd
000000d0: d798 d93e 0897 5ebd 8c84 ebbc cfac 32bd
000000e0: 7b3a a7bd 3a72 063f b14f 083e 00c0 aebb
000000f0: 0ba8 4f3e a1c1 e6bc c573 803d 6041 87bc
00000100: 88ed d83e d8b1 8cbd 42a6 e13c 32f3 5ebd
00000110: fc65 fe3c 3763 cc3d 594b 1dbd 8e89 0e3e
00000120: bbd8 acbc 765f cd3e a34c c33e 8afe 41bd
00000130: ac27 93bc 9582 4cbe 20fe 96bd 50a7 553d
00000140: e9ca 98be b0c9 cebc c3b3 79bc 2317 7cbd
00000150: 182c 8bbd b43d 4cbd eab2 73bd c963 fdbc
00000160: 941e 9b3e c236 533d c2ff 36be f59c babd
00000170: 680e 9abd fa6e 5a3d a622 83bd 9b01 373e
00000180: 0139 2ebe 86ea bdbd a2e7 99bd ca17 87bd
00000190: 0457 603d 6fdc f8bc d0b3 933e 7b2b 6fbd
000001a0: fc3c e93e 92f8 223d 86f0 8abc 5678 6dbd
000001b0: 974a e2bc 51b6 d03e 60db b3bc 6a15 783d
000001c0: 2426 2a3d 669a cb3e aafa a7bb 6298 fcbc
000001d0: df18 663d fd13 89bd 20e2 353d 9a70 943d
000001e0: c2a8 513e 3432 f73d a977 d1bc f0e1 96bd
000001f0: 20f6 773d ea9d b43d 4721 79bd 24c1 a0bc
00000200: 5f3c 123e 9199 ec3b c9e4 dd3e 059a 98bd
00000210: 767d 7bbd 6032 883c 8c18 96bd fc1b c5bd
00000220: 5b02 03be 1a2b e13e d6b0 32be 8a41 25bd
00000230: 1c8c aa3d 3114 953d 7345 45bd e0df 8cbd
00000240: 6814 8bbd a5ad acbd de1a 48be afcb 833e
00000250: 9937 ac3d d7d1 bbbb 57b8 9fbe 3fc6 c3bc
00000260: 0bd0 a13e fb47 d2bd e32c 713d 50df 42be
00000270: b211 e53c 9cac 6bbd 194d 48bd 8a70 a3bd
00000280: 191e 9f3e 5b4c 0dbe e89e 3ebd c76b e03d
00000290: 12e3 bcbd 6298 c03d 4b41 60bd d3f6 e9bc
000002a0: 832a afbd 25fe d4bc c5d5 513c f092 203c
000002b0: 7db9 45bd 5cf3 7fbe b2cc 863e 75ac da3d
000002c0: 1c19 1abe f5e4 29bd 4785 04bd a2e2 aebd
000002d0: f24e 193d a876 adbd 94b7 81bd 60a9 d8bc
000002e0: 69b9 37bd a2f9 14be cfc6 5dbe 285c ef3c
000002f0: 48a8 75be a291 a9bd 6173 a4bd 7e89 8c3b
00000300: 8cab a6bd aef7 91bb 7b37 a8bc 3299 98bd
00000310: 4085 163b 7c9a 7e3e b4cd 093d e095 5ebe
00000320: 4e06 f83c 29bb f63d 45b2 d8bc 8537 acbd
00000330: dc30 ff3c 9f49 ddbc d94a 8cbd 45a3 853d
00000340: 388a ce3d 6108 5f3d 1560 183d b234 dabb
00000350: 534c b13d b36f acbd 74e3 a83a f45d c83c
00000360: 952b b23d 4bcb 8abd cfbd 90be 5105 aebd
00000370: dbf4 69bc 5444 19bd df0e fd3c 10e0 a43e
00000380: f6d5 a63e 1094 22be 9c7b 4bbe a863 953d
00000390: 0461 413e 8c9e 0cbc 59fc c7bd 9b84 8b3c
000003a0: ed2d 0dbe 38b9 3ebd 4509 133d 1c4c f33c
000003b0: 7cb9 f83d ebf2 4fbe eb36 86bd cc29 74bd
000003c0: 7238 d63d 01da 2bbe e46d a43c 2731 eaba
000003d0: 3277 4d3d 72cf 15bc 540b 253c 42ed 1bbd
000003e0: f18f 033a 7b1b 3f3e 3f64 fbbd 844a 1cbe
000003f0: 315c d7bc 213a 20be a622 4d3d 9528 80bc
0.42732486 -0.08057604 0.5252467 0.008023466 -0.1312909 -0.046272203 -0.03391546 -0.0578611
0.077223115 0.08013369 0.20066132 0.021267515 0.05337346 -0.037407544 -0.03432047 -0.038437147
-0.065164074 -0.054659195 0.18920138 -0.2597863 -0.026228322 -0.06962846 -0.33010617 -0.016624745
-0.2349895 0.42932615 0.0513652 0.33295155 -0.044802785 -0.10567449 -0.054080233 0.08551713
0.12768759 0.28112188 0.05329559 0.4551378 0.29953295 0.29755092 -0.027132783 0.026147705
-0.042429138 0.08106298 0.14213103 -0.029222675 -0.058894932 -0.34611675 -0.070494555 0.09848867
0.45492482 -0.033580836 -0.0777398 -0.03221317 0.4249942 -0.054343253 -0.028749727 -0.043621834
-0.08165451 0.52518046 0.1331165 -0.005332947 0.20278947 -0.028168501 0.06272081 -0.016510665
0.42368722 -0.068698585 0.027545098 -0.054431148 0.03105449 0.09979861 -0.038401935 0.1391966
-0.021099439 0.40111893 0.38144407 -0.047361888 -0.017963253 -0.19971688 -0.07372689 0.052161515
-0.29842308 -0.025242656 -0.015240612 -0.061545502 -0.067955196 -0.049863532 -0.059496798 -0.03093137
0.30296767 0.051565893 -0.17871001 -0.091119684 -0.07522279 0.05332849 -0.06403093 0.17871706
-0.17013933 -0.092732474 -0.075148836 -0.06596334 0.054770485 -0.030378548 0.28848124 -0.058391076
0.4555434 0.039787836 -0.016960394 -0.05797609 -0.027623458 0.40764096 -0.021955192 0.060567297
0.04154028 0.39766234 -0.005126317 -0.03083438 0.056176063 -0.066932656 0.044405103 0.072480395
0.20474532 0.12070122 -0.025569754 -0.07367313 0.060537457 0.08819182 -0.06082275 -0.019623347
0.14280842 0.007220455 0.43338612 -0.07451252 -0.061398946 0.016625583 -0.07328901 -0.09624478
-0.12793867 0.43978196 -0.1745027 -0.040345706 0.08327505 0.07279242 -0.048161935 -0.06878638
-0.067910016 -0.084315576 -0.19541499 0.25741336 0.08409042 -0.005731802 -0.31195328 -0.023898242
0.31604037 -0.102676354 0.058880698 -0.190305 0.02796254 -0.05753766 -0.04890165 -0.079804495
0.3107765 -0.13798659 -0.046538264 0.10958057 -0.09222998 0.09404065 -0.05474977 -0.028560078
-0.0855303 -0.026000092 0.012807314 0.009800658 -0.0482726 -0.24995178 0.26328045 0.10677425
-0.15048641 -0.041478116 -0.032353666 -0.085393205 0.037428804 -0.084698975 -0.06333843 -0.026447952
-0.044854555 -0.14548352 -0.2165787 0.029218748 -0.23989975 -0.082797304 -0.08029819 0.0042888513
-0.08138189 -0.0044545745 -0.020534268 -0.07451095 0.0022967607 0.24863619 0.03364344 -0.2173686
0.030276444 0.12047417 -0.026452193 -0.08409027 0.031151228 -0.027012644 -0.068502136 0.06525282
0.10084957 0.05445135 0.037201006 -0.006659114 0.08657136 -0.084197424 0.0012885169 0.024458863
0.08699719 -0.06777056 -0.28269812 -0.08497108 -0.0142795695 -0.03741868 0.03089088 0.32202196
0.32585114 -0.15876794 -0.19871372 0.072943985 0.18884665 -0.008582722 -0.09764928 0.017031005
-0.1378705 -0.046563357 0.035897512 0.029699378 0.12144753 -0.2030751 -0.065534435 -0.059610173
0.10459985 -0.1678238 0.020071931 -0.0017867432 0.0501625 -0.009143697 0.010073502 -0.038068064
0.00050187024 0.18662827 -0.1227498 -0.152628 -0.026289077 -0.15647174 0.05008187 -0.015644351

bias f4 [12]
00000000: 73be a23d a201 ce3d d6ca 273d 68cb 8dbd
00000010: 35b2 a9bd 4790 663d 2285 573d f131 153d
00000020: 9d90 17bd 7aa6 a5bc 5df4 c0bb 915b 2cbb
0.079464816 0.10058905 0.040964924 -0.06923562 -0.082859434 0.056289937 0.0526172 0.03642458
-0.03700315 -0.020220984 -0.0058885054 -0.0026299695
